<?xml version="1.0"?>
<net name="Model0" version="11">
	<layers>
		<layer id="0" name="x" type="Parameter" version="opset1">
			<data shape="1,3,640,640" element_type="f32" />
			<output>
				<port id="0" precision="FP32" names="x">
					<dim>1</dim>
					<dim>3</dim>
					<dim>640</dim>
					<dim>640</dim>
				</port>
			</output>
		</layer>
		<layer id="1" name="__module.model.21/aten::unsqueeze/Unsqueeze" type="Const" version="opset1">
			<data element_type="f32" shape="1, 2, 8400" offset="0" size="67200" />
			<output>
				<port id="0" precision="FP32" names="2055,anchor_points">
					<dim>1</dim>
					<dim>2</dim>
					<dim>8400</dim>
				</port>
			</output>
		</layer>
		<layer id="2" name="self.model.0.conv.weight" type="Const" version="opset1">
			<data element_type="f32" shape="16, 3, 3, 3" offset="67200" size="1728" />
			<output>
				<port id="0" precision="FP32" names="self.model.0.conv.weight">
					<dim>16</dim>
					<dim>3</dim>
					<dim>3</dim>
					<dim>3</dim>
				</port>
			</output>
		</layer>
		<layer id="3" name="__module.model.0.conv/aten::_convolution/Convolution" type="Convolution" version="opset1">
			<data strides="2, 2" dilations="1, 1" pads_begin="1, 1" pads_end="1, 1" auto_pad="explicit" />
			<input>
				<port id="0" precision="FP32">
					<dim>1</dim>
					<dim>3</dim>
					<dim>640</dim>
					<dim>640</dim>
				</port>
				<port id="1" precision="FP32">
					<dim>16</dim>
					<dim>3</dim>
					<dim>3</dim>
					<dim>3</dim>
				</port>
			</input>
			<output>
				<port id="2" precision="FP32">
					<dim>1</dim>
					<dim>16</dim>
					<dim>320</dim>
					<dim>320</dim>
				</port>
			</output>
		</layer>
		<layer id="4" name="__module.model.0.conv/aten::_convolution/Reshape" type="Const" version="opset1">
			<data element_type="f32" shape="1, 16, 1, 1" offset="68928" size="64" />
			<output>
				<port id="0" precision="FP32">
					<dim>1</dim>
					<dim>16</dim>
					<dim>1</dim>
					<dim>1</dim>
				</port>
			</output>
		</layer>
		<layer id="5" name="__module.model.0.conv/aten::_convolution/Add" type="Add" version="opset1">
			<data auto_broadcast="numpy" />
			<input>
				<port id="0" precision="FP32">
					<dim>1</dim>
					<dim>16</dim>
					<dim>320</dim>
					<dim>320</dim>
				</port>
				<port id="1" precision="FP32">
					<dim>1</dim>
					<dim>16</dim>
					<dim>1</dim>
					<dim>1</dim>
				</port>
			</input>
			<output>
				<port id="2" precision="FP32" names="87_1">
					<dim>1</dim>
					<dim>16</dim>
					<dim>320</dim>
					<dim>320</dim>
				</port>
			</output>
		</layer>
		<layer id="6" name="__module.model.21.cv3.2.1.1.act/aten::silu_/Swish" type="Swish" version="opset4">
			<input>
				<port id="0" precision="FP32">
					<dim>1</dim>
					<dim>16</dim>
					<dim>320</dim>
					<dim>320</dim>
				</port>
			</input>
			<output>
				<port id="1" precision="FP32" names="87,input.1">
					<dim>1</dim>
					<dim>16</dim>
					<dim>320</dim>
					<dim>320</dim>
				</port>
			</output>
		</layer>
		<layer id="7" name="__module.model.1.conv/aten::_convolution/Reshape" type="Const" version="opset1">
			<data element_type="f32" shape="2, 16, 8, 3, 3" offset="68992" size="9216" />
			<output>
				<port id="0" precision="FP32">
					<dim>2</dim>
					<dim>16</dim>
					<dim>8</dim>
					<dim>3</dim>
					<dim>3</dim>
				</port>
			</output>
		</layer>
		<layer id="8" name="__module.model.1.conv/aten::_convolution/GroupConvolution" type="GroupConvolution" version="opset1">
			<data strides="2, 2" pads_begin="1, 1" pads_end="1, 1" dilations="1, 1" auto_pad="explicit" />
			<input>
				<port id="0" precision="FP32">
					<dim>1</dim>
					<dim>16</dim>
					<dim>320</dim>
					<dim>320</dim>
				</port>
				<port id="1" precision="FP32">
					<dim>2</dim>
					<dim>16</dim>
					<dim>8</dim>
					<dim>3</dim>
					<dim>3</dim>
				</port>
			</input>
			<output>
				<port id="2" precision="FP32">
					<dim>1</dim>
					<dim>32</dim>
					<dim>160</dim>
					<dim>160</dim>
				</port>
			</output>
		</layer>
		<layer id="9" name="__module.model.1.conv/aten::_convolution/Reshape_1" type="Const" version="opset1">
			<data element_type="f32" shape="1, 32, 1, 1" offset="78208" size="128" />
			<output>
				<port id="0" precision="FP32">
					<dim>1</dim>
					<dim>32</dim>
					<dim>1</dim>
					<dim>1</dim>
				</port>
			</output>
		</layer>
		<layer id="10" name="__module.model.1.conv/aten::_convolution/Add" type="Add" version="opset1">
			<data auto_broadcast="numpy" />
			<input>
				<port id="0" precision="FP32">
					<dim>1</dim>
					<dim>32</dim>
					<dim>160</dim>
					<dim>160</dim>
				</port>
				<port id="1" precision="FP32">
					<dim>1</dim>
					<dim>32</dim>
					<dim>1</dim>
					<dim>1</dim>
				</port>
			</input>
			<output>
				<port id="2" precision="FP32" names="101_1">
					<dim>1</dim>
					<dim>32</dim>
					<dim>160</dim>
					<dim>160</dim>
				</port>
			</output>
		</layer>
		<layer id="11" name="__module.model.21.cv3.2.1.1.act/aten::silu_/Swish_1" type="Swish" version="opset4">
			<input>
				<port id="0" precision="FP32">
					<dim>1</dim>
					<dim>32</dim>
					<dim>160</dim>
					<dim>160</dim>
				</port>
			</input>
			<output>
				<port id="1" precision="FP32" names="101,input.5">
					<dim>1</dim>
					<dim>32</dim>
					<dim>160</dim>
					<dim>160</dim>
				</port>
			</output>
		</layer>
		<layer id="12" name="self.model.2.cv1.conv.weight" type="Const" version="opset1">
			<data element_type="f32" shape="32, 32, 1, 1" offset="78336" size="4096" />
			<output>
				<port id="0" precision="FP32" names="self.model.2.cv1.conv.weight">
					<dim>32</dim>
					<dim>32</dim>
					<dim>1</dim>
					<dim>1</dim>
				</port>
			</output>
		</layer>
		<layer id="13" name="__module.model.2.cv1.conv/aten::_convolution/Convolution" type="Convolution" version="opset1">
			<data strides="1, 1" dilations="1, 1" pads_begin="0, 0" pads_end="0, 0" auto_pad="explicit" />
			<input>
				<port id="0" precision="FP32">
					<dim>1</dim>
					<dim>32</dim>
					<dim>160</dim>
					<dim>160</dim>
				</port>
				<port id="1" precision="FP32">
					<dim>32</dim>
					<dim>32</dim>
					<dim>1</dim>
					<dim>1</dim>
				</port>
			</input>
			<output>
				<port id="2" precision="FP32">
					<dim>1</dim>
					<dim>32</dim>
					<dim>160</dim>
					<dim>160</dim>
				</port>
			</output>
		</layer>
		<layer id="14" name="__module.model.2.cv1.conv/aten::_convolution/Reshape" type="Const" version="opset1">
			<data element_type="f32" shape="1, 32, 1, 1" offset="82432" size="128" />
			<output>
				<port id="0" precision="FP32">
					<dim>1</dim>
					<dim>32</dim>
					<dim>1</dim>
					<dim>1</dim>
				</port>
			</output>
		</layer>
		<layer id="15" name="__module.model.2.cv1.conv/aten::_convolution/Add" type="Add" version="opset1">
			<data auto_broadcast="numpy" />
			<input>
				<port id="0" precision="FP32">
					<dim>1</dim>
					<dim>32</dim>
					<dim>160</dim>
					<dim>160</dim>
				</port>
				<port id="1" precision="FP32">
					<dim>1</dim>
					<dim>32</dim>
					<dim>1</dim>
					<dim>1</dim>
				</port>
			</input>
			<output>
				<port id="2" precision="FP32" names="119_1">
					<dim>1</dim>
					<dim>32</dim>
					<dim>160</dim>
					<dim>160</dim>
				</port>
			</output>
		</layer>
		<layer id="16" name="__module.model.21.cv3.2.1.1.act/aten::silu_/Swish_2" type="Swish" version="opset4">
			<input>
				<port id="0" precision="FP32">
					<dim>1</dim>
					<dim>32</dim>
					<dim>160</dim>
					<dim>160</dim>
				</port>
			</input>
			<output>
				<port id="1" precision="FP32" names="119,input.9">
					<dim>1</dim>
					<dim>32</dim>
					<dim>160</dim>
					<dim>160</dim>
				</port>
			</output>
		</layer>
		<layer id="17" name="107" type="Const" version="opset1">
			<data element_type="i64" shape="" offset="82560" size="8" />
			<output>
				<port id="0" precision="I64" names="107" />
			</output>
		</layer>
		<layer id="18" name="Constant_267" type="Const" version="opset1">
			<data element_type="i64" shape="2" offset="82568" size="16" />
			<output>
				<port id="0" precision="I64" names="121">
					<dim>2</dim>
				</port>
			</output>
		</layer>
		<layer id="19" name="__module.model.2/prim::ListUnpack" type="VariadicSplit" version="opset1">
			<input>
				<port id="0" precision="FP32">
					<dim>1</dim>
					<dim>32</dim>
					<dim>160</dim>
					<dim>160</dim>
				</port>
				<port id="1" precision="I64" />
				<port id="2" precision="I64">
					<dim>2</dim>
				</port>
			</input>
			<output>
				<port id="3" precision="FP32" names="123">
					<dim>1</dim>
					<dim>16</dim>
					<dim>160</dim>
					<dim>160</dim>
				</port>
				<port id="4" precision="FP32" names="124,input.11">
					<dim>1</dim>
					<dim>16</dim>
					<dim>160</dim>
					<dim>160</dim>
				</port>
			</output>
		</layer>
		<layer id="20" name="self.model.2.m.0.cv1.conv.weight" type="Const" version="opset1">
			<data element_type="f32" shape="8, 16, 3, 3" offset="82584" size="4608" />
			<output>
				<port id="0" precision="FP32" names="self.model.2.m.0.cv1.conv.weight">
					<dim>8</dim>
					<dim>16</dim>
					<dim>3</dim>
					<dim>3</dim>
				</port>
			</output>
		</layer>
		<layer id="21" name="__module.model.2.m.0.cv1.conv/aten::_convolution/Convolution" type="Convolution" version="opset1">
			<data strides="1, 1" dilations="1, 1" pads_begin="1, 1" pads_end="1, 1" auto_pad="explicit" />
			<input>
				<port id="0" precision="FP32">
					<dim>1</dim>
					<dim>16</dim>
					<dim>160</dim>
					<dim>160</dim>
				</port>
				<port id="1" precision="FP32">
					<dim>8</dim>
					<dim>16</dim>
					<dim>3</dim>
					<dim>3</dim>
				</port>
			</input>
			<output>
				<port id="2" precision="FP32">
					<dim>1</dim>
					<dim>8</dim>
					<dim>160</dim>
					<dim>160</dim>
				</port>
			</output>
		</layer>
		<layer id="22" name="__module.model.2.m.0.cv1.conv/aten::_convolution/Reshape" type="Const" version="opset1">
			<data element_type="f32" shape="1, 8, 1, 1" offset="87192" size="32" />
			<output>
				<port id="0" precision="FP32">
					<dim>1</dim>
					<dim>8</dim>
					<dim>1</dim>
					<dim>1</dim>
				</port>
			</output>
		</layer>
		<layer id="23" name="__module.model.2.m.0.cv1.conv/aten::_convolution/Add" type="Add" version="opset1">
			<data auto_broadcast="numpy" />
			<input>
				<port id="0" precision="FP32">
					<dim>1</dim>
					<dim>8</dim>
					<dim>160</dim>
					<dim>160</dim>
				</port>
				<port id="1" precision="FP32">
					<dim>1</dim>
					<dim>8</dim>
					<dim>1</dim>
					<dim>1</dim>
				</port>
			</input>
			<output>
				<port id="2" precision="FP32" names="134_1">
					<dim>1</dim>
					<dim>8</dim>
					<dim>160</dim>
					<dim>160</dim>
				</port>
			</output>
		</layer>
		<layer id="24" name="__module.model.21.cv3.2.1.1.act/aten::silu_/Swish_3" type="Swish" version="opset4">
			<input>
				<port id="0" precision="FP32">
					<dim>1</dim>
					<dim>8</dim>
					<dim>160</dim>
					<dim>160</dim>
				</port>
			</input>
			<output>
				<port id="1" precision="FP32" names="134,input.13">
					<dim>1</dim>
					<dim>8</dim>
					<dim>160</dim>
					<dim>160</dim>
				</port>
			</output>
		</layer>
		<layer id="25" name="self.model.2.m.0.cv2.conv.weight" type="Const" version="opset1">
			<data element_type="f32" shape="16, 8, 3, 3" offset="87224" size="4608" />
			<output>
				<port id="0" precision="FP32" names="self.model.2.m.0.cv2.conv.weight">
					<dim>16</dim>
					<dim>8</dim>
					<dim>3</dim>
					<dim>3</dim>
				</port>
			</output>
		</layer>
		<layer id="26" name="__module.model.2.m.0.cv2.conv/aten::_convolution/Convolution" type="Convolution" version="opset1">
			<data strides="1, 1" dilations="1, 1" pads_begin="1, 1" pads_end="1, 1" auto_pad="explicit" />
			<input>
				<port id="0" precision="FP32">
					<dim>1</dim>
					<dim>8</dim>
					<dim>160</dim>
					<dim>160</dim>
				</port>
				<port id="1" precision="FP32">
					<dim>16</dim>
					<dim>8</dim>
					<dim>3</dim>
					<dim>3</dim>
				</port>
			</input>
			<output>
				<port id="2" precision="FP32">
					<dim>1</dim>
					<dim>16</dim>
					<dim>160</dim>
					<dim>160</dim>
				</port>
			</output>
		</layer>
		<layer id="27" name="__module.model.2.m.0.cv2.conv/aten::_convolution/Reshape" type="Const" version="opset1">
			<data element_type="f32" shape="1, 16, 1, 1" offset="91832" size="64" />
			<output>
				<port id="0" precision="FP32">
					<dim>1</dim>
					<dim>16</dim>
					<dim>1</dim>
					<dim>1</dim>
				</port>
			</output>
		</layer>
		<layer id="28" name="__module.model.2.m.0.cv2.conv/aten::_convolution/Add" type="Add" version="opset1">
			<data auto_broadcast="numpy" />
			<input>
				<port id="0" precision="FP32">
					<dim>1</dim>
					<dim>16</dim>
					<dim>160</dim>
					<dim>160</dim>
				</port>
				<port id="1" precision="FP32">
					<dim>1</dim>
					<dim>16</dim>
					<dim>1</dim>
					<dim>1</dim>
				</port>
			</input>
			<output>
				<port id="2" precision="FP32" names="143_1">
					<dim>1</dim>
					<dim>16</dim>
					<dim>160</dim>
					<dim>160</dim>
				</port>
			</output>
		</layer>
		<layer id="29" name="__module.model.21.cv3.2.1.1.act/aten::silu_/Swish_4" type="Swish" version="opset4">
			<input>
				<port id="0" precision="FP32">
					<dim>1</dim>
					<dim>16</dim>
					<dim>160</dim>
					<dim>160</dim>
				</port>
			</input>
			<output>
				<port id="1" precision="FP32" names="143,input.17">
					<dim>1</dim>
					<dim>16</dim>
					<dim>160</dim>
					<dim>160</dim>
				</port>
			</output>
		</layer>
		<layer id="30" name="__module.model.2.m.0/aten::add/Add" type="Add" version="opset1">
			<data auto_broadcast="numpy" />
			<input>
				<port id="0" precision="FP32">
					<dim>1</dim>
					<dim>16</dim>
					<dim>160</dim>
					<dim>160</dim>
				</port>
				<port id="1" precision="FP32">
					<dim>1</dim>
					<dim>16</dim>
					<dim>160</dim>
					<dim>160</dim>
				</port>
			</input>
			<output>
				<port id="2" precision="FP32" names="145">
					<dim>1</dim>
					<dim>16</dim>
					<dim>160</dim>
					<dim>160</dim>
				</port>
			</output>
		</layer>
		<layer id="31" name="__module.model.2/aten::cat/Concat" type="Concat" version="opset1">
			<data axis="1" />
			<input>
				<port id="0" precision="FP32">
					<dim>1</dim>
					<dim>16</dim>
					<dim>160</dim>
					<dim>160</dim>
				</port>
				<port id="1" precision="FP32">
					<dim>1</dim>
					<dim>16</dim>
					<dim>160</dim>
					<dim>160</dim>
				</port>
				<port id="2" precision="FP32">
					<dim>1</dim>
					<dim>16</dim>
					<dim>160</dim>
					<dim>160</dim>
				</port>
			</input>
			<output>
				<port id="3" precision="FP32" names="147,input.19">
					<dim>1</dim>
					<dim>48</dim>
					<dim>160</dim>
					<dim>160</dim>
				</port>
			</output>
		</layer>
		<layer id="32" name="self.model.2.cv2.conv.weight" type="Const" version="opset1">
			<data element_type="f32" shape="64, 48, 1, 1" offset="91896" size="12288" />
			<output>
				<port id="0" precision="FP32" names="self.model.2.cv2.conv.weight">
					<dim>64</dim>
					<dim>48</dim>
					<dim>1</dim>
					<dim>1</dim>
				</port>
			</output>
		</layer>
		<layer id="33" name="__module.model.2.cv2.conv/aten::_convolution/Convolution" type="Convolution" version="opset1">
			<data strides="1, 1" dilations="1, 1" pads_begin="0, 0" pads_end="0, 0" auto_pad="explicit" />
			<input>
				<port id="0" precision="FP32">
					<dim>1</dim>
					<dim>48</dim>
					<dim>160</dim>
					<dim>160</dim>
				</port>
				<port id="1" precision="FP32">
					<dim>64</dim>
					<dim>48</dim>
					<dim>1</dim>
					<dim>1</dim>
				</port>
			</input>
			<output>
				<port id="2" precision="FP32">
					<dim>1</dim>
					<dim>64</dim>
					<dim>160</dim>
					<dim>160</dim>
				</port>
			</output>
		</layer>
		<layer id="34" name="__module.model.2.cv2.conv/aten::_convolution/Reshape" type="Const" version="opset1">
			<data element_type="f32" shape="1, 64, 1, 1" offset="104184" size="256" />
			<output>
				<port id="0" precision="FP32">
					<dim>1</dim>
					<dim>64</dim>
					<dim>1</dim>
					<dim>1</dim>
				</port>
			</output>
		</layer>
		<layer id="35" name="__module.model.2.cv2.conv/aten::_convolution/Add" type="Add" version="opset1">
			<data auto_broadcast="numpy" />
			<input>
				<port id="0" precision="FP32">
					<dim>1</dim>
					<dim>64</dim>
					<dim>160</dim>
					<dim>160</dim>
				</port>
				<port id="1" precision="FP32">
					<dim>1</dim>
					<dim>64</dim>
					<dim>1</dim>
					<dim>1</dim>
				</port>
			</input>
			<output>
				<port id="2" precision="FP32" names="155_1">
					<dim>1</dim>
					<dim>64</dim>
					<dim>160</dim>
					<dim>160</dim>
				</port>
			</output>
		</layer>
		<layer id="36" name="__module.model.21.cv3.2.1.1.act/aten::silu_/Swish_5" type="Swish" version="opset4">
			<input>
				<port id="0" precision="FP32">
					<dim>1</dim>
					<dim>64</dim>
					<dim>160</dim>
					<dim>160</dim>
				</port>
			</input>
			<output>
				<port id="1" precision="FP32" names="155,input.21">
					<dim>1</dim>
					<dim>64</dim>
					<dim>160</dim>
					<dim>160</dim>
				</port>
			</output>
		</layer>
		<layer id="37" name="__module.model.3.conv/aten::_convolution/Reshape" type="Const" version="opset1">
			<data element_type="f32" shape="4, 16, 16, 3, 3" offset="104440" size="36864" />
			<output>
				<port id="0" precision="FP32">
					<dim>4</dim>
					<dim>16</dim>
					<dim>16</dim>
					<dim>3</dim>
					<dim>3</dim>
				</port>
			</output>
		</layer>
		<layer id="38" name="__module.model.3.conv/aten::_convolution/GroupConvolution" type="GroupConvolution" version="opset1">
			<data strides="2, 2" pads_begin="1, 1" pads_end="1, 1" dilations="1, 1" auto_pad="explicit" />
			<input>
				<port id="0" precision="FP32">
					<dim>1</dim>
					<dim>64</dim>
					<dim>160</dim>
					<dim>160</dim>
				</port>
				<port id="1" precision="FP32">
					<dim>4</dim>
					<dim>16</dim>
					<dim>16</dim>
					<dim>3</dim>
					<dim>3</dim>
				</port>
			</input>
			<output>
				<port id="2" precision="FP32">
					<dim>1</dim>
					<dim>64</dim>
					<dim>80</dim>
					<dim>80</dim>
				</port>
			</output>
		</layer>
		<layer id="39" name="__module.model.3.conv/aten::_convolution/Reshape_1" type="Const" version="opset1">
			<data element_type="f32" shape="1, 64, 1, 1" offset="141304" size="256" />
			<output>
				<port id="0" precision="FP32">
					<dim>1</dim>
					<dim>64</dim>
					<dim>1</dim>
					<dim>1</dim>
				</port>
			</output>
		</layer>
		<layer id="40" name="__module.model.3.conv/aten::_convolution/Add" type="Add" version="opset1">
			<data auto_broadcast="numpy" />
			<input>
				<port id="0" precision="FP32">
					<dim>1</dim>
					<dim>64</dim>
					<dim>80</dim>
					<dim>80</dim>
				</port>
				<port id="1" precision="FP32">
					<dim>1</dim>
					<dim>64</dim>
					<dim>1</dim>
					<dim>1</dim>
				</port>
			</input>
			<output>
				<port id="2" precision="FP32" names="170_1">
					<dim>1</dim>
					<dim>64</dim>
					<dim>80</dim>
					<dim>80</dim>
				</port>
			</output>
		</layer>
		<layer id="41" name="__module.model.21.cv3.2.1.1.act/aten::silu_/Swish_6" type="Swish" version="opset4">
			<input>
				<port id="0" precision="FP32">
					<dim>1</dim>
					<dim>64</dim>
					<dim>80</dim>
					<dim>80</dim>
				</port>
			</input>
			<output>
				<port id="1" precision="FP32" names="170,input.25">
					<dim>1</dim>
					<dim>64</dim>
					<dim>80</dim>
					<dim>80</dim>
				</port>
			</output>
		</layer>
		<layer id="42" name="self.model.4.cv1.conv.weight" type="Const" version="opset1">
			<data element_type="f32" shape="64, 64, 1, 1" offset="141560" size="16384" />
			<output>
				<port id="0" precision="FP32" names="self.model.4.cv1.conv.weight">
					<dim>64</dim>
					<dim>64</dim>
					<dim>1</dim>
					<dim>1</dim>
				</port>
			</output>
		</layer>
		<layer id="43" name="__module.model.4.cv1.conv/aten::_convolution/Convolution" type="Convolution" version="opset1">
			<data strides="1, 1" dilations="1, 1" pads_begin="0, 0" pads_end="0, 0" auto_pad="explicit" />
			<input>
				<port id="0" precision="FP32">
					<dim>1</dim>
					<dim>64</dim>
					<dim>80</dim>
					<dim>80</dim>
				</port>
				<port id="1" precision="FP32">
					<dim>64</dim>
					<dim>64</dim>
					<dim>1</dim>
					<dim>1</dim>
				</port>
			</input>
			<output>
				<port id="2" precision="FP32">
					<dim>1</dim>
					<dim>64</dim>
					<dim>80</dim>
					<dim>80</dim>
				</port>
			</output>
		</layer>
		<layer id="44" name="__module.model.4.cv1.conv/aten::_convolution/Reshape" type="Const" version="opset1">
			<data element_type="f32" shape="1, 64, 1, 1" offset="157944" size="256" />
			<output>
				<port id="0" precision="FP32">
					<dim>1</dim>
					<dim>64</dim>
					<dim>1</dim>
					<dim>1</dim>
				</port>
			</output>
		</layer>
		<layer id="45" name="__module.model.4.cv1.conv/aten::_convolution/Add" type="Add" version="opset1">
			<data auto_broadcast="numpy" />
			<input>
				<port id="0" precision="FP32">
					<dim>1</dim>
					<dim>64</dim>
					<dim>80</dim>
					<dim>80</dim>
				</port>
				<port id="1" precision="FP32">
					<dim>1</dim>
					<dim>64</dim>
					<dim>1</dim>
					<dim>1</dim>
				</port>
			</input>
			<output>
				<port id="2" precision="FP32" names="188_1">
					<dim>1</dim>
					<dim>64</dim>
					<dim>80</dim>
					<dim>80</dim>
				</port>
			</output>
		</layer>
		<layer id="46" name="__module.model.21.cv3.2.1.1.act/aten::silu_/Swish_7" type="Swish" version="opset4">
			<input>
				<port id="0" precision="FP32">
					<dim>1</dim>
					<dim>64</dim>
					<dim>80</dim>
					<dim>80</dim>
				</port>
			</input>
			<output>
				<port id="1" precision="FP32" names="188,input.29">
					<dim>1</dim>
					<dim>64</dim>
					<dim>80</dim>
					<dim>80</dim>
				</port>
			</output>
		</layer>
		<layer id="47" name="176" type="Const" version="opset1">
			<data element_type="i64" shape="" offset="82560" size="8" />
			<output>
				<port id="0" precision="I64" names="176" />
			</output>
		</layer>
		<layer id="48" name="Constant_581" type="Const" version="opset1">
			<data element_type="i64" shape="2" offset="158200" size="16" />
			<output>
				<port id="0" precision="I64" names="190">
					<dim>2</dim>
				</port>
			</output>
		</layer>
		<layer id="49" name="__module.model.4/prim::ListUnpack" type="VariadicSplit" version="opset1">
			<input>
				<port id="0" precision="FP32">
					<dim>1</dim>
					<dim>64</dim>
					<dim>80</dim>
					<dim>80</dim>
				</port>
				<port id="1" precision="I64" />
				<port id="2" precision="I64">
					<dim>2</dim>
				</port>
			</input>
			<output>
				<port id="3" precision="FP32" names="192">
					<dim>1</dim>
					<dim>32</dim>
					<dim>80</dim>
					<dim>80</dim>
				</port>
				<port id="4" precision="FP32" names="193,input.31">
					<dim>1</dim>
					<dim>32</dim>
					<dim>80</dim>
					<dim>80</dim>
				</port>
			</output>
		</layer>
		<layer id="50" name="self.model.4.m.0.cv1.conv.weight" type="Const" version="opset1">
			<data element_type="f32" shape="16, 32, 3, 3" offset="158216" size="18432" />
			<output>
				<port id="0" precision="FP32" names="self.model.4.m.0.cv1.conv.weight">
					<dim>16</dim>
					<dim>32</dim>
					<dim>3</dim>
					<dim>3</dim>
				</port>
			</output>
		</layer>
		<layer id="51" name="__module.model.4.m.0.cv1.conv/aten::_convolution/Convolution" type="Convolution" version="opset1">
			<data strides="1, 1" dilations="1, 1" pads_begin="1, 1" pads_end="1, 1" auto_pad="explicit" />
			<input>
				<port id="0" precision="FP32">
					<dim>1</dim>
					<dim>32</dim>
					<dim>80</dim>
					<dim>80</dim>
				</port>
				<port id="1" precision="FP32">
					<dim>16</dim>
					<dim>32</dim>
					<dim>3</dim>
					<dim>3</dim>
				</port>
			</input>
			<output>
				<port id="2" precision="FP32">
					<dim>1</dim>
					<dim>16</dim>
					<dim>80</dim>
					<dim>80</dim>
				</port>
			</output>
		</layer>
		<layer id="52" name="__module.model.4.m.0.cv1.conv/aten::_convolution/Reshape" type="Const" version="opset1">
			<data element_type="f32" shape="1, 16, 1, 1" offset="176648" size="64" />
			<output>
				<port id="0" precision="FP32">
					<dim>1</dim>
					<dim>16</dim>
					<dim>1</dim>
					<dim>1</dim>
				</port>
			</output>
		</layer>
		<layer id="53" name="__module.model.4.m.0.cv1.conv/aten::_convolution/Add" type="Add" version="opset1">
			<data auto_broadcast="numpy" />
			<input>
				<port id="0" precision="FP32">
					<dim>1</dim>
					<dim>16</dim>
					<dim>80</dim>
					<dim>80</dim>
				</port>
				<port id="1" precision="FP32">
					<dim>1</dim>
					<dim>16</dim>
					<dim>1</dim>
					<dim>1</dim>
				</port>
			</input>
			<output>
				<port id="2" precision="FP32" names="203_1">
					<dim>1</dim>
					<dim>16</dim>
					<dim>80</dim>
					<dim>80</dim>
				</port>
			</output>
		</layer>
		<layer id="54" name="__module.model.21.cv3.2.1.1.act/aten::silu_/Swish_8" type="Swish" version="opset4">
			<input>
				<port id="0" precision="FP32">
					<dim>1</dim>
					<dim>16</dim>
					<dim>80</dim>
					<dim>80</dim>
				</port>
			</input>
			<output>
				<port id="1" precision="FP32" names="203,input.33">
					<dim>1</dim>
					<dim>16</dim>
					<dim>80</dim>
					<dim>80</dim>
				</port>
			</output>
		</layer>
		<layer id="55" name="self.model.4.m.0.cv2.conv.weight" type="Const" version="opset1">
			<data element_type="f32" shape="32, 16, 3, 3" offset="176712" size="18432" />
			<output>
				<port id="0" precision="FP32" names="self.model.4.m.0.cv2.conv.weight">
					<dim>32</dim>
					<dim>16</dim>
					<dim>3</dim>
					<dim>3</dim>
				</port>
			</output>
		</layer>
		<layer id="56" name="__module.model.4.m.0.cv2.conv/aten::_convolution/Convolution" type="Convolution" version="opset1">
			<data strides="1, 1" dilations="1, 1" pads_begin="1, 1" pads_end="1, 1" auto_pad="explicit" />
			<input>
				<port id="0" precision="FP32">
					<dim>1</dim>
					<dim>16</dim>
					<dim>80</dim>
					<dim>80</dim>
				</port>
				<port id="1" precision="FP32">
					<dim>32</dim>
					<dim>16</dim>
					<dim>3</dim>
					<dim>3</dim>
				</port>
			</input>
			<output>
				<port id="2" precision="FP32">
					<dim>1</dim>
					<dim>32</dim>
					<dim>80</dim>
					<dim>80</dim>
				</port>
			</output>
		</layer>
		<layer id="57" name="__module.model.4.m.0.cv2.conv/aten::_convolution/Reshape" type="Const" version="opset1">
			<data element_type="f32" shape="1, 32, 1, 1" offset="195144" size="128" />
			<output>
				<port id="0" precision="FP32">
					<dim>1</dim>
					<dim>32</dim>
					<dim>1</dim>
					<dim>1</dim>
				</port>
			</output>
		</layer>
		<layer id="58" name="__module.model.4.m.0.cv2.conv/aten::_convolution/Add" type="Add" version="opset1">
			<data auto_broadcast="numpy" />
			<input>
				<port id="0" precision="FP32">
					<dim>1</dim>
					<dim>32</dim>
					<dim>80</dim>
					<dim>80</dim>
				</port>
				<port id="1" precision="FP32">
					<dim>1</dim>
					<dim>32</dim>
					<dim>1</dim>
					<dim>1</dim>
				</port>
			</input>
			<output>
				<port id="2" precision="FP32" names="212_1">
					<dim>1</dim>
					<dim>32</dim>
					<dim>80</dim>
					<dim>80</dim>
				</port>
			</output>
		</layer>
		<layer id="59" name="__module.model.21.cv3.2.1.1.act/aten::silu_/Swish_9" type="Swish" version="opset4">
			<input>
				<port id="0" precision="FP32">
					<dim>1</dim>
					<dim>32</dim>
					<dim>80</dim>
					<dim>80</dim>
				</port>
			</input>
			<output>
				<port id="1" precision="FP32" names="212,input.37">
					<dim>1</dim>
					<dim>32</dim>
					<dim>80</dim>
					<dim>80</dim>
				</port>
			</output>
		</layer>
		<layer id="60" name="__module.model.4.m.0/aten::add/Add" type="Add" version="opset1">
			<data auto_broadcast="numpy" />
			<input>
				<port id="0" precision="FP32">
					<dim>1</dim>
					<dim>32</dim>
					<dim>80</dim>
					<dim>80</dim>
				</port>
				<port id="1" precision="FP32">
					<dim>1</dim>
					<dim>32</dim>
					<dim>80</dim>
					<dim>80</dim>
				</port>
			</input>
			<output>
				<port id="2" precision="FP32" names="214">
					<dim>1</dim>
					<dim>32</dim>
					<dim>80</dim>
					<dim>80</dim>
				</port>
			</output>
		</layer>
		<layer id="61" name="__module.model.4/aten::cat/Concat" type="Concat" version="opset1">
			<data axis="1" />
			<input>
				<port id="0" precision="FP32">
					<dim>1</dim>
					<dim>32</dim>
					<dim>80</dim>
					<dim>80</dim>
				</port>
				<port id="1" precision="FP32">
					<dim>1</dim>
					<dim>32</dim>
					<dim>80</dim>
					<dim>80</dim>
				</port>
				<port id="2" precision="FP32">
					<dim>1</dim>
					<dim>32</dim>
					<dim>80</dim>
					<dim>80</dim>
				</port>
			</input>
			<output>
				<port id="3" precision="FP32" names="216,input.39">
					<dim>1</dim>
					<dim>96</dim>
					<dim>80</dim>
					<dim>80</dim>
				</port>
			</output>
		</layer>
		<layer id="62" name="self.model.4.cv2.conv.weight" type="Const" version="opset1">
			<data element_type="f32" shape="128, 96, 1, 1" offset="195272" size="49152" />
			<output>
				<port id="0" precision="FP32" names="self.model.4.cv2.conv.weight">
					<dim>128</dim>
					<dim>96</dim>
					<dim>1</dim>
					<dim>1</dim>
				</port>
			</output>
		</layer>
		<layer id="63" name="__module.model.4.cv2.conv/aten::_convolution/Convolution" type="Convolution" version="opset1">
			<data strides="1, 1" dilations="1, 1" pads_begin="0, 0" pads_end="0, 0" auto_pad="explicit" />
			<input>
				<port id="0" precision="FP32">
					<dim>1</dim>
					<dim>96</dim>
					<dim>80</dim>
					<dim>80</dim>
				</port>
				<port id="1" precision="FP32">
					<dim>128</dim>
					<dim>96</dim>
					<dim>1</dim>
					<dim>1</dim>
				</port>
			</input>
			<output>
				<port id="2" precision="FP32">
					<dim>1</dim>
					<dim>128</dim>
					<dim>80</dim>
					<dim>80</dim>
				</port>
			</output>
		</layer>
		<layer id="64" name="__module.model.4.cv2.conv/aten::_convolution/Reshape" type="Const" version="opset1">
			<data element_type="f32" shape="1, 128, 1, 1" offset="244424" size="512" />
			<output>
				<port id="0" precision="FP32">
					<dim>1</dim>
					<dim>128</dim>
					<dim>1</dim>
					<dim>1</dim>
				</port>
			</output>
		</layer>
		<layer id="65" name="__module.model.4.cv2.conv/aten::_convolution/Add" type="Add" version="opset1">
			<data auto_broadcast="numpy" />
			<input>
				<port id="0" precision="FP32">
					<dim>1</dim>
					<dim>128</dim>
					<dim>80</dim>
					<dim>80</dim>
				</port>
				<port id="1" precision="FP32">
					<dim>1</dim>
					<dim>128</dim>
					<dim>1</dim>
					<dim>1</dim>
				</port>
			</input>
			<output>
				<port id="2" precision="FP32" names="224_1">
					<dim>1</dim>
					<dim>128</dim>
					<dim>80</dim>
					<dim>80</dim>
				</port>
			</output>
		</layer>
		<layer id="66" name="__module.model.21.cv3.2.1.1.act/aten::silu_/Swish_10" type="Swish" version="opset4">
			<input>
				<port id="0" precision="FP32">
					<dim>1</dim>
					<dim>128</dim>
					<dim>80</dim>
					<dim>80</dim>
				</port>
			</input>
			<output>
				<port id="1" precision="FP32" names="224,input.41">
					<dim>1</dim>
					<dim>128</dim>
					<dim>80</dim>
					<dim>80</dim>
				</port>
			</output>
		</layer>
		<layer id="67" name="self.model.5.conv.weight" type="Const" version="opset1">
			<data element_type="f32" shape="128, 128, 3, 3" offset="244936" size="589824" />
			<output>
				<port id="0" precision="FP32" names="self.model.5.conv.weight">
					<dim>128</dim>
					<dim>128</dim>
					<dim>3</dim>
					<dim>3</dim>
				</port>
			</output>
		</layer>
		<layer id="68" name="__module.model.5.conv/aten::_convolution/Convolution" type="Convolution" version="opset1">
			<data strides="2, 2" dilations="1, 1" pads_begin="1, 1" pads_end="1, 1" auto_pad="explicit" />
			<input>
				<port id="0" precision="FP32">
					<dim>1</dim>
					<dim>128</dim>
					<dim>80</dim>
					<dim>80</dim>
				</port>
				<port id="1" precision="FP32">
					<dim>128</dim>
					<dim>128</dim>
					<dim>3</dim>
					<dim>3</dim>
				</port>
			</input>
			<output>
				<port id="2" precision="FP32">
					<dim>1</dim>
					<dim>128</dim>
					<dim>40</dim>
					<dim>40</dim>
				</port>
			</output>
		</layer>
		<layer id="69" name="__module.model.5.conv/aten::_convolution/Reshape" type="Const" version="opset1">
			<data element_type="f32" shape="1, 128, 1, 1" offset="834760" size="512" />
			<output>
				<port id="0" precision="FP32">
					<dim>1</dim>
					<dim>128</dim>
					<dim>1</dim>
					<dim>1</dim>
				</port>
			</output>
		</layer>
		<layer id="70" name="__module.model.5.conv/aten::_convolution/Add" type="Add" version="opset1">
			<data auto_broadcast="numpy" />
			<input>
				<port id="0" precision="FP32">
					<dim>1</dim>
					<dim>128</dim>
					<dim>40</dim>
					<dim>40</dim>
				</port>
				<port id="1" precision="FP32">
					<dim>1</dim>
					<dim>128</dim>
					<dim>1</dim>
					<dim>1</dim>
				</port>
			</input>
			<output>
				<port id="2" precision="FP32" names="238_1">
					<dim>1</dim>
					<dim>128</dim>
					<dim>40</dim>
					<dim>40</dim>
				</port>
			</output>
		</layer>
		<layer id="71" name="__module.model.21.cv3.2.1.1.act/aten::silu_/Swish_11" type="Swish" version="opset4">
			<input>
				<port id="0" precision="FP32">
					<dim>1</dim>
					<dim>128</dim>
					<dim>40</dim>
					<dim>40</dim>
				</port>
			</input>
			<output>
				<port id="1" precision="FP32" names="238,input.45">
					<dim>1</dim>
					<dim>128</dim>
					<dim>40</dim>
					<dim>40</dim>
				</port>
			</output>
		</layer>
		<layer id="72" name="self.model.6.cv1.conv.weight" type="Const" version="opset1">
			<data element_type="f32" shape="64, 128, 1, 1" offset="835272" size="32768" />
			<output>
				<port id="0" precision="FP32" names="self.model.6.cv1.conv.weight">
					<dim>64</dim>
					<dim>128</dim>
					<dim>1</dim>
					<dim>1</dim>
				</port>
			</output>
		</layer>
		<layer id="73" name="__module.model.6.cv1.conv/aten::_convolution/Convolution" type="Convolution" version="opset1">
			<data strides="1, 1" dilations="1, 1" pads_begin="0, 0" pads_end="0, 0" auto_pad="explicit" />
			<input>
				<port id="0" precision="FP32">
					<dim>1</dim>
					<dim>128</dim>
					<dim>40</dim>
					<dim>40</dim>
				</port>
				<port id="1" precision="FP32">
					<dim>64</dim>
					<dim>128</dim>
					<dim>1</dim>
					<dim>1</dim>
				</port>
			</input>
			<output>
				<port id="2" precision="FP32">
					<dim>1</dim>
					<dim>64</dim>
					<dim>40</dim>
					<dim>40</dim>
				</port>
			</output>
		</layer>
		<layer id="74" name="__module.model.6.cv1.conv/aten::_convolution/Reshape" type="Const" version="opset1">
			<data element_type="f32" shape="1, 64, 1, 1" offset="868040" size="256" />
			<output>
				<port id="0" precision="FP32">
					<dim>1</dim>
					<dim>64</dim>
					<dim>1</dim>
					<dim>1</dim>
				</port>
			</output>
		</layer>
		<layer id="75" name="__module.model.6.cv1.conv/aten::_convolution/Add" type="Add" version="opset1">
			<data auto_broadcast="numpy" />
			<input>
				<port id="0" precision="FP32">
					<dim>1</dim>
					<dim>64</dim>
					<dim>40</dim>
					<dim>40</dim>
				</port>
				<port id="1" precision="FP32">
					<dim>1</dim>
					<dim>64</dim>
					<dim>1</dim>
					<dim>1</dim>
				</port>
			</input>
			<output>
				<port id="2" precision="FP32" names="267_1">
					<dim>1</dim>
					<dim>64</dim>
					<dim>40</dim>
					<dim>40</dim>
				</port>
			</output>
		</layer>
		<layer id="76" name="__module.model.21.cv3.2.1.1.act/aten::silu_/Swish_12" type="Swish" version="opset4">
			<input>
				<port id="0" precision="FP32">
					<dim>1</dim>
					<dim>64</dim>
					<dim>40</dim>
					<dim>40</dim>
				</port>
			</input>
			<output>
				<port id="1" precision="FP32" names="267,input.49">
					<dim>1</dim>
					<dim>64</dim>
					<dim>40</dim>
					<dim>40</dim>
				</port>
			</output>
		</layer>
		<layer id="77" name="self.model.6.m.0.0.attn.v.conv.weight" type="Const" version="opset1">
			<data element_type="f32" shape="64, 64, 1, 1" offset="868296" size="16384" />
			<output>
				<port id="0" precision="FP32" names="self.model.6.m.0.0.attn.v.conv.weight">
					<dim>64</dim>
					<dim>64</dim>
					<dim>1</dim>
					<dim>1</dim>
				</port>
			</output>
		</layer>
		<layer id="78" name="__module.model.6.m.0.0.attn.v.conv/aten::_convolution/Convolution" type="Convolution" version="opset1">
			<data strides="1, 1" dilations="1, 1" pads_begin="0, 0" pads_end="0, 0" auto_pad="explicit" />
			<input>
				<port id="0" precision="FP32">
					<dim>1</dim>
					<dim>64</dim>
					<dim>40</dim>
					<dim>40</dim>
				</port>
				<port id="1" precision="FP32">
					<dim>64</dim>
					<dim>64</dim>
					<dim>1</dim>
					<dim>1</dim>
				</port>
			</input>
			<output>
				<port id="2" precision="FP32">
					<dim>1</dim>
					<dim>64</dim>
					<dim>40</dim>
					<dim>40</dim>
				</port>
			</output>
		</layer>
		<layer id="79" name="__module.model.6.m.0.0.attn.v.conv/aten::_convolution/Reshape" type="Const" version="opset1">
			<data element_type="f32" shape="1, 64, 1, 1" offset="884680" size="256" />
			<output>
				<port id="0" precision="FP32">
					<dim>1</dim>
					<dim>64</dim>
					<dim>1</dim>
					<dim>1</dim>
				</port>
			</output>
		</layer>
		<layer id="80" name="__module.model.6.m.0.0.attn.v.conv/aten::_convolution/Add" type="Add" version="opset1">
			<data auto_broadcast="numpy" />
			<input>
				<port id="0" precision="FP32">
					<dim>1</dim>
					<dim>64</dim>
					<dim>40</dim>
					<dim>40</dim>
				</port>
				<port id="1" precision="FP32">
					<dim>1</dim>
					<dim>64</dim>
					<dim>1</dim>
					<dim>1</dim>
				</port>
			</input>
			<output>
				<port id="2" precision="FP32" names="303,input.51">
					<dim>1</dim>
					<dim>64</dim>
					<dim>40</dim>
					<dim>40</dim>
				</port>
			</output>
		</layer>
		<layer id="81" name="Constant_42769" type="Const" version="opset1">
			<data element_type="i64" shape="3" offset="884936" size="24" />
			<output>
				<port id="0" precision="I64">
					<dim>3</dim>
				</port>
			</output>
		</layer>
		<layer id="82" name="__module.model.6.m.0.0.attn/aten::flatten/Reshape" type="Reshape" version="opset1">
			<data special_zero="true" />
			<input>
				<port id="0" precision="FP32">
					<dim>1</dim>
					<dim>64</dim>
					<dim>40</dim>
					<dim>40</dim>
				</port>
				<port id="1" precision="I64">
					<dim>3</dim>
				</port>
			</input>
			<output>
				<port id="2" precision="FP32" names="312">
					<dim>1</dim>
					<dim>64</dim>
					<dim>1600</dim>
				</port>
			</output>
		</layer>
		<layer id="83" name="__module.model.6.m.0.0.attn/aten::transpose/Constant" type="Const" version="opset1">
			<data element_type="i32" shape="3" offset="884960" size="12" />
			<output>
				<port id="0" precision="I32">
					<dim>3</dim>
				</port>
			</output>
		</layer>
		<layer id="84" name="__module.model.6.m.0.0.attn/aten::transpose/Transpose" type="Transpose" version="opset1">
			<input>
				<port id="0" precision="FP32">
					<dim>1</dim>
					<dim>64</dim>
					<dim>1600</dim>
				</port>
				<port id="1" precision="I32">
					<dim>3</dim>
				</port>
			</input>
			<output>
				<port id="2" precision="FP32" names="313,v.1">
					<dim>1</dim>
					<dim>1600</dim>
					<dim>64</dim>
				</port>
			</output>
		</layer>
		<layer id="85" name="self.model.6.m.0.0.attn.qk.conv.weight" type="Const" version="opset1">
			<data element_type="f32" shape="128, 64, 1, 1" offset="884972" size="32768" />
			<output>
				<port id="0" precision="FP32" names="self.model.6.m.0.0.attn.qk.conv.weight">
					<dim>128</dim>
					<dim>64</dim>
					<dim>1</dim>
					<dim>1</dim>
				</port>
			</output>
		</layer>
		<layer id="86" name="__module.model.6.m.0.0.attn.qk.conv/aten::_convolution/Convolution" type="Convolution" version="opset1">
			<data strides="1, 1" dilations="1, 1" pads_begin="0, 0" pads_end="0, 0" auto_pad="explicit" />
			<input>
				<port id="0" precision="FP32">
					<dim>1</dim>
					<dim>64</dim>
					<dim>40</dim>
					<dim>40</dim>
				</port>
				<port id="1" precision="FP32">
					<dim>128</dim>
					<dim>64</dim>
					<dim>1</dim>
					<dim>1</dim>
				</port>
			</input>
			<output>
				<port id="2" precision="FP32">
					<dim>1</dim>
					<dim>128</dim>
					<dim>40</dim>
					<dim>40</dim>
				</port>
			</output>
		</layer>
		<layer id="87" name="__module.model.6.m.0.0.attn.qk.conv/aten::_convolution/Reshape" type="Const" version="opset1">
			<data element_type="f32" shape="1, 128, 1, 1" offset="917740" size="512" />
			<output>
				<port id="0" precision="FP32">
					<dim>1</dim>
					<dim>128</dim>
					<dim>1</dim>
					<dim>1</dim>
				</port>
			</output>
		</layer>
		<layer id="88" name="__module.model.6.m.0.0.attn.qk.conv/aten::_convolution/Add" type="Add" version="opset1">
			<data auto_broadcast="numpy" />
			<input>
				<port id="0" precision="FP32">
					<dim>1</dim>
					<dim>128</dim>
					<dim>40</dim>
					<dim>40</dim>
				</port>
				<port id="1" precision="FP32">
					<dim>1</dim>
					<dim>128</dim>
					<dim>1</dim>
					<dim>1</dim>
				</port>
			</input>
			<output>
				<port id="2" precision="FP32" names="293">
					<dim>1</dim>
					<dim>128</dim>
					<dim>40</dim>
					<dim>40</dim>
				</port>
			</output>
		</layer>
		<layer id="89" name="ShapeOf_42444" type="ShapeOf" version="opset3">
			<data output_type="i64" />
			<input>
				<port id="0" precision="FP32">
					<dim>1</dim>
					<dim>128</dim>
					<dim>40</dim>
					<dim>40</dim>
				</port>
			</input>
			<output>
				<port id="1" precision="I64">
					<dim>4</dim>
				</port>
			</output>
		</layer>
		<layer id="90" name="Constant_42445" type="Const" version="opset1">
			<data element_type="i64" shape="1" offset="918252" size="8" />
			<output>
				<port id="0" precision="I64">
					<dim>1</dim>
				</port>
			</output>
		</layer>
		<layer id="91" name="Constant_42446" type="Const" version="opset1">
			<data element_type="i64" shape="" offset="918252" size="8" />
			<output>
				<port id="0" precision="I64" />
			</output>
		</layer>
		<layer id="92" name="Gather_42447" type="Gather" version="opset8">
			<data batch_dims="0" />
			<input>
				<port id="0" precision="I64">
					<dim>4</dim>
				</port>
				<port id="1" precision="I64">
					<dim>1</dim>
				</port>
				<port id="2" precision="I64" />
			</input>
			<output>
				<port id="3" precision="I64" names="1068,1174,2027,2041,277,539,854,960">
					<dim>1</dim>
				</port>
			</output>
		</layer>
		<layer id="93" name="Constant_35638" type="Const" version="opset1">
			<data element_type="i64" shape="1" offset="918260" size="8" />
			<output>
				<port id="0" precision="I64">
					<dim>1</dim>
				</port>
			</output>
		</layer>
		<layer id="94" name="__module.model.6.m.0.0.attn/aten::mul/Multiply" type="Multiply" version="opset1">
			<data auto_broadcast="numpy" />
			<input>
				<port id="0" precision="I64">
					<dim>1</dim>
				</port>
				<port id="1" precision="I64">
					<dim>1</dim>
				</port>
			</input>
			<output>
				<port id="2" precision="I64" names="314,315,322,323,576,577,584,585">
					<dim>1</dim>
				</port>
			</output>
		</layer>
		<layer id="95" name="ShapeOf_42448" type="ShapeOf" version="opset3">
			<data output_type="i64" />
			<input>
				<port id="0" precision="FP32">
					<dim>1</dim>
					<dim>64</dim>
					<dim>40</dim>
					<dim>40</dim>
				</port>
			</input>
			<output>
				<port id="1" precision="I64">
					<dim>4</dim>
				</port>
			</output>
		</layer>
		<layer id="96" name="Constant_42449" type="Const" version="opset1">
			<data element_type="i64" shape="" offset="918268" size="8" />
			<output>
				<port id="0" precision="I64" />
			</output>
		</layer>
		<layer id="97" name="Constant_42450" type="Const" version="opset1">
			<data element_type="i64" shape="" offset="918252" size="8" />
			<output>
				<port id="0" precision="I64" />
			</output>
		</layer>
		<layer id="98" name="Gather_42451" type="Gather" version="opset8">
			<data batch_dims="0" />
			<input>
				<port id="0" precision="I64">
					<dim>4</dim>
				</port>
				<port id="1" precision="I64" />
				<port id="2" precision="I64" />
			</input>
			<output>
				<port id="3" precision="I64" names="281,543" />
			</output>
		</layer>
		<layer id="99" name="Constant_42453" type="Const" version="opset1">
			<data element_type="i64" shape="" offset="918276" size="8" />
			<output>
				<port id="0" precision="I64" />
			</output>
		</layer>
		<layer id="100" name="Constant_42454" type="Const" version="opset1">
			<data element_type="i64" shape="" offset="918252" size="8" />
			<output>
				<port id="0" precision="I64" />
			</output>
		</layer>
		<layer id="101" name="Gather_42455" type="Gather" version="opset8">
			<data batch_dims="0" />
			<input>
				<port id="0" precision="I64">
					<dim>4</dim>
				</port>
				<port id="1" precision="I64" />
				<port id="2" precision="I64" />
			</input>
			<output>
				<port id="3" precision="I64" names="283,545" />
			</output>
		</layer>
		<layer id="102" name="__module.model.6.m.0.0.attn/aten::mul/Multiply_1" type="Multiply" version="opset1">
			<data auto_broadcast="numpy" />
			<input>
				<port id="0" precision="I64" />
				<port id="1" precision="I64" />
			</input>
			<output>
				<port id="2" precision="I64" names="285,547" />
			</output>
		</layer>
		<layer id="103" name="Constant_785" type="Const" version="opset1">
			<data element_type="i64" shape="" offset="918260" size="8" />
			<output>
				<port id="0" precision="I64" names="244" />
			</output>
		</layer>
		<layer id="104" name="__module.model.6.m.0.0.attn/aten::floor_divide/Divide" type="Divide" version="opset1">
			<data auto_broadcast="numpy" m_pythondiv="true" />
			<input>
				<port id="0" precision="I64" />
				<port id="1" precision="I64" />
			</input>
			<output>
				<port id="2" precision="I64" />
			</output>
		</layer>
		<layer id="105" name="__module.model.6.m.0.0.attn/aten::floor_divide/Floor" type="Floor" version="opset1">
			<input>
				<port id="0" precision="I64" />
			</input>
			<output>
				<port id="1" precision="I64" names="316,317,324,325,578,579,586,587" />
			</output>
		</layer>
		<layer id="106" name="Constant_1767" type="Const" version="opset1">
			<data element_type="i32" shape="" offset="918284" size="4" />
			<output>
				<port id="0" precision="I32" />
			</output>
		</layer>
		<layer id="107" name="Unsqueeze_1769" type="Unsqueeze" version="opset1">
			<input>
				<port id="0" precision="I64" />
				<port id="1" precision="I32" />
			</input>
			<output>
				<port id="2" precision="I64">
					<dim>1</dim>
				</port>
			</output>
		</layer>
		<layer id="108" name="Constant_1937" type="Const" version="opset1">
			<data element_type="i64" shape="1" offset="918288" size="8" />
			<output>
				<port id="0" precision="I64">
					<dim>1</dim>
				</port>
			</output>
		</layer>
		<layer id="109" name="__module.model.6.m.0.0.attn/prim::ListConstruct" type="Concat" version="opset1">
			<data axis="0" />
			<input>
				<port id="0" precision="I64">
					<dim>1</dim>
				</port>
				<port id="1" precision="I64">
					<dim>1</dim>
				</port>
				<port id="2" precision="I64">
					<dim>1</dim>
				</port>
			</input>
			<output>
				<port id="3" precision="I64">
					<dim>3</dim>
				</port>
			</output>
		</layer>
		<layer id="110" name="__module.model.6.m.0.0.attn/aten::reshape/Reshape" type="Reshape" version="opset1">
			<data special_zero="false" />
			<input>
				<port id="0" precision="FP32">
					<dim>1</dim>
					<dim>1600</dim>
					<dim>64</dim>
				</port>
				<port id="1" precision="I64">
					<dim>3</dim>
				</port>
			</input>
			<output>
				<port id="2" precision="FP32" names="327,v.3">
					<dim>4</dim>
					<dim>400</dim>
					<dim>64</dim>
				</port>
			</output>
		</layer>
		<layer id="111" name="__module.model.6.m.0.0.attn/aten::transpose/Constant_1" type="Const" version="opset1">
			<data element_type="i32" shape="3" offset="884960" size="12" />
			<output>
				<port id="0" precision="I32">
					<dim>3</dim>
				</port>
			</output>
		</layer>
		<layer id="112" name="__module.model.6.m.0.0.attn/aten::transpose/Transpose_1" type="Transpose" version="opset1">
			<input>
				<port id="0" precision="FP32">
					<dim>4</dim>
					<dim>400</dim>
					<dim>64</dim>
				</port>
				<port id="1" precision="I32">
					<dim>3</dim>
				</port>
			</input>
			<output>
				<port id="2" precision="FP32" names="342">
					<dim>4</dim>
					<dim>64</dim>
					<dim>400</dim>
				</port>
			</output>
		</layer>
		<layer id="113" name="Constant_42770" type="Const" version="opset1">
			<data element_type="i64" shape="3" offset="918296" size="24" />
			<output>
				<port id="0" precision="I64">
					<dim>3</dim>
				</port>
			</output>
		</layer>
		<layer id="114" name="__module.model.6.m.0.0.attn/aten::flatten/Reshape_1" type="Reshape" version="opset1">
			<data special_zero="true" />
			<input>
				<port id="0" precision="FP32">
					<dim>1</dim>
					<dim>128</dim>
					<dim>40</dim>
					<dim>40</dim>
				</port>
				<port id="1" precision="I64">
					<dim>3</dim>
				</port>
			</input>
			<output>
				<port id="2" precision="FP32" names="294">
					<dim>1</dim>
					<dim>128</dim>
					<dim>1600</dim>
				</port>
			</output>
		</layer>
		<layer id="115" name="__module.model.6.m.0.0.attn/aten::transpose/Constant_2" type="Const" version="opset1">
			<data element_type="i32" shape="3" offset="884960" size="12" />
			<output>
				<port id="0" precision="I32">
					<dim>3</dim>
				</port>
			</output>
		</layer>
		<layer id="116" name="__module.model.6.m.0.0.attn/aten::transpose/Transpose_2" type="Transpose" version="opset1">
			<input>
				<port id="0" precision="FP32">
					<dim>1</dim>
					<dim>128</dim>
					<dim>1600</dim>
				</port>
				<port id="1" precision="I32">
					<dim>3</dim>
				</port>
			</input>
			<output>
				<port id="2" precision="FP32" names="295,qk.1">
					<dim>1</dim>
					<dim>1600</dim>
					<dim>128</dim>
				</port>
			</output>
		</layer>
		<layer id="117" name="Constant_1419" type="Const" version="opset1">
			<data element_type="i64" shape="1" offset="918320" size="8" />
			<output>
				<port id="0" precision="I64">
					<dim>1</dim>
				</port>
			</output>
		</layer>
		<layer id="118" name="__module.model.6.m.0.0.attn/prim::ListConstruct_1" type="Concat" version="opset1">
			<data axis="0" />
			<input>
				<port id="0" precision="I64">
					<dim>1</dim>
				</port>
				<port id="1" precision="I64">
					<dim>1</dim>
				</port>
				<port id="2" precision="I64">
					<dim>1</dim>
				</port>
			</input>
			<output>
				<port id="3" precision="I64">
					<dim>3</dim>
				</port>
			</output>
		</layer>
		<layer id="119" name="__module.model.6.m.0.0.attn/aten::reshape/Reshape_1" type="Reshape" version="opset1">
			<data special_zero="false" />
			<input>
				<port id="0" precision="FP32">
					<dim>1</dim>
					<dim>1600</dim>
					<dim>128</dim>
				</port>
				<port id="1" precision="I64">
					<dim>3</dim>
				</port>
			</input>
			<output>
				<port id="2" precision="FP32" names="321,qk.3">
					<dim>4</dim>
					<dim>400</dim>
					<dim>128</dim>
				</port>
			</output>
		</layer>
		<layer id="120" name="ShapeOf_42466" type="ShapeOf" version="opset3">
			<data output_type="i64" />
			<input>
				<port id="0" precision="FP32">
					<dim>4</dim>
					<dim>400</dim>
					<dim>128</dim>
				</port>
			</input>
			<output>
				<port id="1" precision="I64">
					<dim>3</dim>
				</port>
			</output>
		</layer>
		<layer id="121" name="Constant_42467" type="Const" version="opset1">
			<data element_type="i64" shape="" offset="918252" size="8" />
			<output>
				<port id="0" precision="I64" />
			</output>
		</layer>
		<layer id="122" name="Constant_42468" type="Const" version="opset1">
			<data element_type="i64" shape="" offset="918252" size="8" />
			<output>
				<port id="0" precision="I64" />
			</output>
		</layer>
		<layer id="123" name="Gather_42469" type="Gather" version="opset8">
			<data batch_dims="0" />
			<input>
				<port id="0" precision="I64">
					<dim>3</dim>
				</port>
				<port id="1" precision="I64" />
				<port id="2" precision="I64" />
			</input>
			<output>
				<port id="3" precision="I64" names="328" />
			</output>
		</layer>
		<layer id="124" name="Constant_42470" type="Const" version="opset1">
			<data element_type="i64" shape="1" offset="82560" size="8" />
			<output>
				<port id="0" precision="I64">
					<dim>1</dim>
				</port>
			</output>
		</layer>
		<layer id="125" name="Reshape_42471" type="Reshape" version="opset1">
			<data special_zero="false" />
			<input>
				<port id="0" precision="I64" />
				<port id="1" precision="I64">
					<dim>1</dim>
				</port>
			</input>
			<output>
				<port id="2" precision="I64">
					<dim>1</dim>
				</port>
			</output>
		</layer>
		<layer id="126" name="Constant_2407" type="Const" version="opset1">
			<data element_type="i64" shape="1" offset="918268" size="8" />
			<output>
				<port id="0" precision="I64">
					<dim>1</dim>
				</port>
			</output>
		</layer>
		<layer id="127" name="Constant_2408" type="Const" version="opset1">
			<data element_type="i64" shape="1" offset="918328" size="8" />
			<output>
				<port id="0" precision="I64">
					<dim>1</dim>
				</port>
			</output>
		</layer>
		<layer id="128" name="Constant_42473" type="Const" version="opset1">
			<data element_type="i64" shape="1" offset="82560" size="8" />
			<output>
				<port id="0" precision="I64">
					<dim>1</dim>
				</port>
			</output>
		</layer>
		<layer id="129" name="Constant_42474" type="Const" version="opset1">
			<data element_type="i64" shape="" offset="918252" size="8" />
			<output>
				<port id="0" precision="I64" />
			</output>
		</layer>
		<layer id="130" name="Gather_42475" type="Gather" version="opset8">
			<data batch_dims="0" />
			<input>
				<port id="0" precision="I64">
					<dim>3</dim>
				</port>
				<port id="1" precision="I64">
					<dim>1</dim>
				</port>
				<port id="2" precision="I64" />
			</input>
			<output>
				<port id="3" precision="I64" names="330">
					<dim>1</dim>
				</port>
			</output>
		</layer>
		<layer id="131" name="__module.model.6.m.0.0.attn/prim::ListConstruct_2" type="Concat" version="opset1">
			<data axis="0" />
			<input>
				<port id="0" precision="I64">
					<dim>1</dim>
				</port>
				<port id="1" precision="I64">
					<dim>1</dim>
				</port>
				<port id="2" precision="I64">
					<dim>1</dim>
				</port>
				<port id="3" precision="I64">
					<dim>1</dim>
				</port>
			</input>
			<output>
				<port id="4" precision="I64">
					<dim>4</dim>
				</port>
			</output>
		</layer>
		<layer id="132" name="__module.model.6.m.0.0.attn/aten::view/Reshape" type="Reshape" version="opset1">
			<data special_zero="false" />
			<input>
				<port id="0" precision="FP32">
					<dim>4</dim>
					<dim>64</dim>
					<dim>400</dim>
				</port>
				<port id="1" precision="I64">
					<dim>4</dim>
				</port>
			</input>
			<output>
				<port id="2" precision="FP32" names="344,v.5">
					<dim>4</dim>
					<dim>2</dim>
					<dim>32</dim>
					<dim>400</dim>
				</port>
			</output>
		</layer>
		<layer id="133" name="240" type="Const" version="opset1">
			<data element_type="i64" shape="" offset="918268" size="8" />
			<output>
				<port id="0" precision="I64" names="240" />
			</output>
		</layer>
		<layer id="134" name="Constant_35774" type="Const" version="opset1">
			<data element_type="i64" shape="2" offset="918336" size="16" />
			<output>
				<port id="0" precision="I64">
					<dim>2</dim>
				</port>
			</output>
		</layer>
		<layer id="135" name="Constant_35775" type="Const" version="opset1">
			<data element_type="i64" shape="" offset="918252" size="8" />
			<output>
				<port id="0" precision="I64" />
			</output>
		</layer>
		<layer id="136" name="Gather_35776" type="Gather" version="opset8">
			<data batch_dims="0" />
			<input>
				<port id="0" precision="I64">
					<dim>4</dim>
				</port>
				<port id="1" precision="I64">
					<dim>2</dim>
				</port>
				<port id="2" precision="I64" />
			</input>
			<output>
				<port id="3" precision="I64">
					<dim>2</dim>
				</port>
			</output>
		</layer>
		<layer id="137" name="__module.model.6.m.0.0.attn/prim::ListUnpack" type="VariadicSplit" version="opset1">
			<input>
				<port id="0" precision="FP32">
					<dim>4</dim>
					<dim>400</dim>
					<dim>128</dim>
				</port>
				<port id="1" precision="I64" />
				<port id="2" precision="I64">
					<dim>2</dim>
				</port>
			</input>
			<output>
				<port id="3" precision="FP32" names="334,q.1">
					<dim>4</dim>
					<dim>400</dim>
					<dim>64</dim>
				</port>
				<port id="4" precision="FP32" names="335,k.1">
					<dim>4</dim>
					<dim>400</dim>
					<dim>64</dim>
				</port>
			</output>
		</layer>
		<layer id="138" name="__module.model.6.m.0.0.attn/aten::transpose/Constant_3" type="Const" version="opset1">
			<data element_type="i32" shape="3" offset="884960" size="12" />
			<output>
				<port id="0" precision="I32">
					<dim>3</dim>
				</port>
			</output>
		</layer>
		<layer id="139" name="__module.model.6.m.0.0.attn/aten::transpose/Transpose_3" type="Transpose" version="opset1">
			<input>
				<port id="0" precision="FP32">
					<dim>4</dim>
					<dim>400</dim>
					<dim>64</dim>
				</port>
				<port id="1" precision="I32">
					<dim>3</dim>
				</port>
			</input>
			<output>
				<port id="2" precision="FP32" names="336">
					<dim>4</dim>
					<dim>64</dim>
					<dim>400</dim>
				</port>
			</output>
		</layer>
		<layer id="140" name="Constant_42771" type="Const" version="opset1">
			<data element_type="i64" shape="4" offset="918352" size="32" />
			<output>
				<port id="0" precision="I64">
					<dim>4</dim>
				</port>
			</output>
		</layer>
		<layer id="141" name="__module.model.6.m.0.0.attn/aten::view/Reshape_1" type="Reshape" version="opset1">
			<data special_zero="true" />
			<input>
				<port id="0" precision="FP32">
					<dim>4</dim>
					<dim>64</dim>
					<dim>400</dim>
				</port>
				<port id="1" precision="I64">
					<dim>4</dim>
				</port>
			</input>
			<output>
				<port id="2" precision="FP32" names="338,q.3">
					<dim>4</dim>
					<dim>2</dim>
					<dim>32</dim>
					<dim>400</dim>
				</port>
			</output>
		</layer>
		<layer id="142" name="__module.model.6.m.0.0.attn/aten::transpose/Constant_5" type="Const" version="opset1">
			<data element_type="i32" shape="3" offset="884960" size="12" />
			<output>
				<port id="0" precision="I32">
					<dim>3</dim>
				</port>
			</output>
		</layer>
		<layer id="143" name="__module.model.6.m.0.0.attn/aten::transpose/Transpose_5" type="Transpose" version="opset1">
			<input>
				<port id="0" precision="FP32">
					<dim>4</dim>
					<dim>400</dim>
					<dim>64</dim>
				</port>
				<port id="1" precision="I32">
					<dim>3</dim>
				</port>
			</input>
			<output>
				<port id="2" precision="FP32" names="339">
					<dim>4</dim>
					<dim>64</dim>
					<dim>400</dim>
				</port>
			</output>
		</layer>
		<layer id="144" name="Constant_42772" type="Const" version="opset1">
			<data element_type="i64" shape="4" offset="918352" size="32" />
			<output>
				<port id="0" precision="I64">
					<dim>4</dim>
				</port>
			</output>
		</layer>
		<layer id="145" name="__module.model.6.m.0.0.attn/aten::view/Reshape_2" type="Reshape" version="opset1">
			<data special_zero="true" />
			<input>
				<port id="0" precision="FP32">
					<dim>4</dim>
					<dim>64</dim>
					<dim>400</dim>
				</port>
				<port id="1" precision="I64">
					<dim>4</dim>
				</port>
			</input>
			<output>
				<port id="2" precision="FP32" names="341,k.3">
					<dim>4</dim>
					<dim>2</dim>
					<dim>32</dim>
					<dim>400</dim>
				</port>
			</output>
		</layer>
		<layer id="146" name="Constant_40378" type="Const" version="opset1">
			<data element_type="f32" shape="1, 1, 1, 1" offset="918384" size="4" />
			<output>
				<port id="0" precision="FP32">
					<dim>1</dim>
					<dim>1</dim>
					<dim>1</dim>
					<dim>1</dim>
				</port>
			</output>
		</layer>
		<layer id="147" name="Multiply_40104" type="Multiply" version="opset1">
			<data auto_broadcast="numpy" />
			<input>
				<port id="0" precision="FP32">
					<dim>4</dim>
					<dim>2</dim>
					<dim>32</dim>
					<dim>400</dim>
				</port>
				<port id="1" precision="FP32">
					<dim>1</dim>
					<dim>1</dim>
					<dim>1</dim>
					<dim>1</dim>
				</port>
			</input>
			<output>
				<port id="2" precision="FP32">
					<dim>4</dim>
					<dim>2</dim>
					<dim>32</dim>
					<dim>400</dim>
				</port>
			</output>
		</layer>
		<layer id="148" name="__module.model.6.m.0.0.attn/aten::mul/Multiply_3" type="MatMul" version="opset1">
			<data transpose_a="true" transpose_b="false" />
			<input>
				<port id="0" precision="FP32">
					<dim>4</dim>
					<dim>2</dim>
					<dim>32</dim>
					<dim>400</dim>
				</port>
				<port id="1" precision="FP32">
					<dim>4</dim>
					<dim>2</dim>
					<dim>32</dim>
					<dim>400</dim>
				</port>
			</input>
			<output>
				<port id="2" precision="FP32" names="347,attn.1">
					<dim>4</dim>
					<dim>2</dim>
					<dim>400</dim>
					<dim>400</dim>
				</port>
			</output>
		</layer>
		<layer id="149" name="__module.model.6.m.0.0.attn/aten::div/Divide" type="SoftMax" version="opset1">
			<data axis="3" />
			<input>
				<port id="0" precision="FP32">
					<dim>4</dim>
					<dim>2</dim>
					<dim>400</dim>
					<dim>400</dim>
				</port>
			</input>
			<output>
				<port id="1" precision="FP32" names="354,attn.3">
					<dim>4</dim>
					<dim>2</dim>
					<dim>400</dim>
					<dim>400</dim>
				</port>
			</output>
		</layer>
		<layer id="150" name="__module.model.6.m.0.0.attn/aten::matmul/MatMul_1" type="MatMul" version="opset1">
			<data transpose_a="false" transpose_b="true" />
			<input>
				<port id="0" precision="FP32">
					<dim>4</dim>
					<dim>2</dim>
					<dim>32</dim>
					<dim>400</dim>
				</port>
				<port id="1" precision="FP32">
					<dim>4</dim>
					<dim>2</dim>
					<dim>400</dim>
					<dim>400</dim>
				</port>
			</input>
			<output>
				<port id="2" precision="FP32" names="356,x.5">
					<dim>4</dim>
					<dim>2</dim>
					<dim>32</dim>
					<dim>400</dim>
				</port>
			</output>
		</layer>
		<layer id="151" name="Constant_2596" type="Const" version="opset1">
			<data element_type="i64" shape="4" offset="918388" size="32" />
			<output>
				<port id="0" precision="I64" names="357">
					<dim>4</dim>
				</port>
			</output>
		</layer>
		<layer id="152" name="__module.model.6.m.0.0.attn/aten::permute/Transpose" type="Transpose" version="opset1">
			<input>
				<port id="0" precision="FP32">
					<dim>4</dim>
					<dim>2</dim>
					<dim>32</dim>
					<dim>400</dim>
				</port>
				<port id="1" precision="I64">
					<dim>4</dim>
				</port>
			</input>
			<output>
				<port id="2" precision="FP32" names="358,x.7">
					<dim>4</dim>
					<dim>400</dim>
					<dim>2</dim>
					<dim>32</dim>
				</port>
			</output>
		</layer>
		<layer id="153" name="__module.model.6.m.0.0.attn/aten::floor_divide/Divide_2" type="Divide" version="opset1">
			<data auto_broadcast="numpy" m_pythondiv="true" />
			<input>
				<port id="0" precision="I64" />
				<port id="1" precision="I64" />
			</input>
			<output>
				<port id="2" precision="I64" />
			</output>
		</layer>
		<layer id="154" name="__module.model.6.m.0.0.attn/aten::floor_divide/Floor_2" type="Floor" version="opset1">
			<input>
				<port id="0" precision="I64" />
			</input>
			<output>
				<port id="1" precision="I64" names="359,360" />
			</output>
		</layer>
		<layer id="155" name="Constant_2614" type="Const" version="opset1">
			<data element_type="i32" shape="" offset="918284" size="4" />
			<output>
				<port id="0" precision="I32" />
			</output>
		</layer>
		<layer id="156" name="Unsqueeze_2617" type="Unsqueeze" version="opset1">
			<input>
				<port id="0" precision="I64" />
				<port id="1" precision="I32" />
			</input>
			<output>
				<port id="2" precision="I64">
					<dim>1</dim>
				</port>
			</output>
		</layer>
		<layer id="157" name="Constant_35641" type="Const" version="opset1">
			<data element_type="i64" shape="1" offset="918260" size="8" />
			<output>
				<port id="0" precision="I64">
					<dim>1</dim>
				</port>
			</output>
		</layer>
		<layer id="158" name="__module.model.6.m.0.0.attn/aten::mul/Multiply_4" type="Multiply" version="opset1">
			<data auto_broadcast="numpy" />
			<input>
				<port id="0" precision="I64">
					<dim>1</dim>
				</port>
				<port id="1" precision="I64">
					<dim>1</dim>
				</port>
			</input>
			<output>
				<port id="2" precision="I64" names="361,362">
					<dim>1</dim>
				</port>
			</output>
		</layer>
		<layer id="159" name="Constant_2720" type="Const" version="opset1">
			<data element_type="i64" shape="1" offset="918288" size="8" />
			<output>
				<port id="0" precision="I64">
					<dim>1</dim>
				</port>
			</output>
		</layer>
		<layer id="160" name="__module.model.6.m.0.0.attn/prim::ListConstruct_5" type="Concat" version="opset1">
			<data axis="0" />
			<input>
				<port id="0" precision="I64">
					<dim>1</dim>
				</port>
				<port id="1" precision="I64">
					<dim>1</dim>
				</port>
				<port id="2" precision="I64">
					<dim>1</dim>
				</port>
			</input>
			<output>
				<port id="3" precision="I64">
					<dim>3</dim>
				</port>
			</output>
		</layer>
		<layer id="161" name="__module.model.6.m.0.0.attn/aten::reshape/Reshape_2" type="Reshape" version="opset1">
			<data special_zero="false" />
			<input>
				<port id="0" precision="FP32">
					<dim>4</dim>
					<dim>400</dim>
					<dim>2</dim>
					<dim>32</dim>
				</port>
				<port id="1" precision="I64">
					<dim>3</dim>
				</port>
			</input>
			<output>
				<port id="2" precision="FP32" names="364,x.9">
					<dim>1</dim>
					<dim>1600</dim>
					<dim>64</dim>
				</port>
			</output>
		</layer>
		<layer id="162" name="ShapeOf_42480" type="ShapeOf" version="opset3">
			<data output_type="i64" />
			<input>
				<port id="0" precision="FP32">
					<dim>1</dim>
					<dim>1600</dim>
					<dim>64</dim>
				</port>
			</input>
			<output>
				<port id="1" precision="I64">
					<dim>3</dim>
				</port>
			</output>
		</layer>
		<layer id="163" name="Constant_42481" type="Const" version="opset1">
			<data element_type="i64" shape="1" offset="918252" size="8" />
			<output>
				<port id="0" precision="I64">
					<dim>1</dim>
				</port>
			</output>
		</layer>
		<layer id="164" name="Constant_42482" type="Const" version="opset1">
			<data element_type="i64" shape="" offset="918252" size="8" />
			<output>
				<port id="0" precision="I64" />
			</output>
		</layer>
		<layer id="165" name="Gather_42483" type="Gather" version="opset8">
			<data batch_dims="0" />
			<input>
				<port id="0" precision="I64">
					<dim>3</dim>
				</port>
				<port id="1" precision="I64">
					<dim>1</dim>
				</port>
				<port id="2" precision="I64" />
			</input>
			<output>
				<port id="3" precision="I64" names="365">
					<dim>1</dim>
				</port>
			</output>
		</layer>
		<layer id="166" name="Constant_42484" type="Const" version="opset1">
			<data element_type="i64" shape="1" offset="82560" size="8" />
			<output>
				<port id="0" precision="I64">
					<dim>1</dim>
				</port>
			</output>
		</layer>
		<layer id="167" name="Reshape_42485" type="Reshape" version="opset1">
			<data special_zero="false" />
			<input>
				<port id="0" precision="I64" />
				<port id="1" precision="I64">
					<dim>1</dim>
				</port>
			</input>
			<output>
				<port id="2" precision="I64">
					<dim>1</dim>
				</port>
			</output>
		</layer>
		<layer id="168" name="Constant_42486" type="Const" version="opset1">
			<data element_type="i64" shape="1" offset="82560" size="8" />
			<output>
				<port id="0" precision="I64">
					<dim>1</dim>
				</port>
			</output>
		</layer>
		<layer id="169" name="Reshape_42487" type="Reshape" version="opset1">
			<data special_zero="false" />
			<input>
				<port id="0" precision="I64" />
				<port id="1" precision="I64">
					<dim>1</dim>
				</port>
			</input>
			<output>
				<port id="2" precision="I64">
					<dim>1</dim>
				</port>
			</output>
		</layer>
		<layer id="170" name="Constant_2809" type="Const" version="opset1">
			<data element_type="i64" shape="1" offset="918288" size="8" />
			<output>
				<port id="0" precision="I64">
					<dim>1</dim>
				</port>
			</output>
		</layer>
		<layer id="171" name="__module.model.6.m.0.0.attn/prim::ListConstruct_6" type="Concat" version="opset1">
			<data axis="0" />
			<input>
				<port id="0" precision="I64">
					<dim>1</dim>
				</port>
				<port id="1" precision="I64">
					<dim>1</dim>
				</port>
				<port id="2" precision="I64">
					<dim>1</dim>
				</port>
				<port id="3" precision="I64">
					<dim>1</dim>
				</port>
			</input>
			<output>
				<port id="4" precision="I64">
					<dim>4</dim>
				</port>
			</output>
		</layer>
		<layer id="172" name="__module.model.6.m.0.0.attn/aten::reshape/Reshape_3" type="Reshape" version="opset1">
			<data special_zero="false" />
			<input>
				<port id="0" precision="FP32">
					<dim>1</dim>
					<dim>1600</dim>
					<dim>64</dim>
				</port>
				<port id="1" precision="I64">
					<dim>4</dim>
				</port>
			</input>
			<output>
				<port id="2" precision="FP32" names="367">
					<dim>1</dim>
					<dim>40</dim>
					<dim>40</dim>
					<dim>64</dim>
				</port>
			</output>
		</layer>
		<layer id="173" name="Constant_2818" type="Const" version="opset1">
			<data element_type="i64" shape="4" offset="918388" size="32" />
			<output>
				<port id="0" precision="I64" names="368">
					<dim>4</dim>
				</port>
			</output>
		</layer>
		<layer id="174" name="__module.model.6.m.0.0.attn/aten::permute/Transpose_1" type="Transpose" version="opset1">
			<input>
				<port id="0" precision="FP32">
					<dim>1</dim>
					<dim>40</dim>
					<dim>40</dim>
					<dim>64</dim>
				</port>
				<port id="1" precision="I64">
					<dim>4</dim>
				</port>
			</input>
			<output>
				<port id="2" precision="FP32" names="369,x.11">
					<dim>1</dim>
					<dim>64</dim>
					<dim>40</dim>
					<dim>40</dim>
				</port>
			</output>
		</layer>
		<layer id="175" name="__module.model.6.m.0.0.attn.pe.conv/aten::_convolution/Reshape" type="Const" version="opset1">
			<data element_type="f32" shape="64, 1, 1, 5, 5" offset="918420" size="6400" />
			<output>
				<port id="0" precision="FP32">
					<dim>64</dim>
					<dim>1</dim>
					<dim>1</dim>
					<dim>5</dim>
					<dim>5</dim>
				</port>
			</output>
		</layer>
		<layer id="176" name="__module.model.6.m.0.0.attn.pe.conv/aten::_convolution/GroupConvolution" type="GroupConvolution" version="opset1">
			<data strides="1, 1" pads_begin="2, 2" pads_end="2, 2" dilations="1, 1" auto_pad="explicit" />
			<input>
				<port id="0" precision="FP32">
					<dim>1</dim>
					<dim>64</dim>
					<dim>40</dim>
					<dim>40</dim>
				</port>
				<port id="1" precision="FP32">
					<dim>64</dim>
					<dim>1</dim>
					<dim>1</dim>
					<dim>5</dim>
					<dim>5</dim>
				</port>
			</input>
			<output>
				<port id="2" precision="FP32">
					<dim>1</dim>
					<dim>64</dim>
					<dim>40</dim>
					<dim>40</dim>
				</port>
			</output>
		</layer>
		<layer id="177" name="__module.model.6.m.0.0.attn.pe.conv/aten::_convolution/Reshape_1" type="Const" version="opset1">
			<data element_type="f32" shape="1, 64, 1, 1" offset="924820" size="256" />
			<output>
				<port id="0" precision="FP32">
					<dim>1</dim>
					<dim>64</dim>
					<dim>1</dim>
					<dim>1</dim>
				</port>
			</output>
		</layer>
		<layer id="178" name="__module.model.6.m.0.0.attn.pe.conv/aten::_convolution/Add" type="Add" version="opset1">
			<data auto_broadcast="numpy" />
			<input>
				<port id="0" precision="FP32">
					<dim>1</dim>
					<dim>64</dim>
					<dim>40</dim>
					<dim>40</dim>
				</port>
				<port id="1" precision="FP32">
					<dim>1</dim>
					<dim>64</dim>
					<dim>1</dim>
					<dim>1</dim>
				</port>
			</input>
			<output>
				<port id="2" precision="FP32" names="311,pp.1">
					<dim>1</dim>
					<dim>64</dim>
					<dim>40</dim>
					<dim>40</dim>
				</port>
			</output>
		</layer>
		<layer id="179" name="__module.model.6.m.0.0.attn/aten::add/Add" type="Add" version="opset1">
			<data auto_broadcast="numpy" />
			<input>
				<port id="0" precision="FP32">
					<dim>1</dim>
					<dim>64</dim>
					<dim>40</dim>
					<dim>40</dim>
				</port>
				<port id="1" precision="FP32">
					<dim>1</dim>
					<dim>64</dim>
					<dim>40</dim>
					<dim>40</dim>
				</port>
			</input>
			<output>
				<port id="2" precision="FP32" names="370,input.53">
					<dim>1</dim>
					<dim>64</dim>
					<dim>40</dim>
					<dim>40</dim>
				</port>
			</output>
		</layer>
		<layer id="180" name="self.model.6.m.0.0.attn.proj.conv.weight" type="Const" version="opset1">
			<data element_type="f32" shape="64, 64, 1, 1" offset="925076" size="16384" />
			<output>
				<port id="0" precision="FP32" names="self.model.6.m.0.0.attn.proj.conv.weight">
					<dim>64</dim>
					<dim>64</dim>
					<dim>1</dim>
					<dim>1</dim>
				</port>
			</output>
		</layer>
		<layer id="181" name="__module.model.6.m.0.0.attn.proj.conv/aten::_convolution/Convolution" type="Convolution" version="opset1">
			<data strides="1, 1" dilations="1, 1" pads_begin="0, 0" pads_end="0, 0" auto_pad="explicit" />
			<input>
				<port id="0" precision="FP32">
					<dim>1</dim>
					<dim>64</dim>
					<dim>40</dim>
					<dim>40</dim>
				</port>
				<port id="1" precision="FP32">
					<dim>64</dim>
					<dim>64</dim>
					<dim>1</dim>
					<dim>1</dim>
				</port>
			</input>
			<output>
				<port id="2" precision="FP32">
					<dim>1</dim>
					<dim>64</dim>
					<dim>40</dim>
					<dim>40</dim>
				</port>
			</output>
		</layer>
		<layer id="182" name="__module.model.6.m.0.0.attn.proj.conv/aten::_convolution/Reshape" type="Const" version="opset1">
			<data element_type="f32" shape="1, 64, 1, 1" offset="941460" size="256" />
			<output>
				<port id="0" precision="FP32">
					<dim>1</dim>
					<dim>64</dim>
					<dim>1</dim>
					<dim>1</dim>
				</port>
			</output>
		</layer>
		<layer id="183" name="__module.model.6.m.0.0.attn.proj.conv/aten::_convolution/Add" type="Add" version="opset1">
			<data auto_broadcast="numpy" />
			<input>
				<port id="0" precision="FP32">
					<dim>1</dim>
					<dim>64</dim>
					<dim>40</dim>
					<dim>40</dim>
				</port>
				<port id="1" precision="FP32">
					<dim>1</dim>
					<dim>64</dim>
					<dim>1</dim>
					<dim>1</dim>
				</port>
			</input>
			<output>
				<port id="2" precision="FP32" names="378">
					<dim>1</dim>
					<dim>64</dim>
					<dim>40</dim>
					<dim>40</dim>
				</port>
			</output>
		</layer>
		<layer id="184" name="__module.model.6.m.0.0/aten::add/Add" type="Add" version="opset1">
			<data auto_broadcast="numpy" />
			<input>
				<port id="0" precision="FP32">
					<dim>1</dim>
					<dim>64</dim>
					<dim>40</dim>
					<dim>40</dim>
				</port>
				<port id="1" precision="FP32">
					<dim>1</dim>
					<dim>64</dim>
					<dim>40</dim>
					<dim>40</dim>
				</port>
			</input>
			<output>
				<port id="2" precision="FP32" names="379,input.55">
					<dim>1</dim>
					<dim>64</dim>
					<dim>40</dim>
					<dim>40</dim>
				</port>
			</output>
		</layer>
		<layer id="185" name="self.model.6.m.0.0.mlp.0.conv.weight" type="Const" version="opset1">
			<data element_type="f32" shape="128, 64, 1, 1" offset="941716" size="32768" />
			<output>
				<port id="0" precision="FP32" names="self.model.6.m.0.0.mlp.0.conv.weight">
					<dim>128</dim>
					<dim>64</dim>
					<dim>1</dim>
					<dim>1</dim>
				</port>
			</output>
		</layer>
		<layer id="186" name="__module.model.6.m.0.0.mlp.0.conv/aten::_convolution/Convolution" type="Convolution" version="opset1">
			<data strides="1, 1" dilations="1, 1" pads_begin="0, 0" pads_end="0, 0" auto_pad="explicit" />
			<input>
				<port id="0" precision="FP32">
					<dim>1</dim>
					<dim>64</dim>
					<dim>40</dim>
					<dim>40</dim>
				</port>
				<port id="1" precision="FP32">
					<dim>128</dim>
					<dim>64</dim>
					<dim>1</dim>
					<dim>1</dim>
				</port>
			</input>
			<output>
				<port id="2" precision="FP32">
					<dim>1</dim>
					<dim>128</dim>
					<dim>40</dim>
					<dim>40</dim>
				</port>
			</output>
		</layer>
		<layer id="187" name="__module.model.6.m.0.0.mlp.0.conv/aten::_convolution/Reshape" type="Const" version="opset1">
			<data element_type="f32" shape="1, 128, 1, 1" offset="974484" size="512" />
			<output>
				<port id="0" precision="FP32">
					<dim>1</dim>
					<dim>128</dim>
					<dim>1</dim>
					<dim>1</dim>
				</port>
			</output>
		</layer>
		<layer id="188" name="__module.model.6.m.0.0.mlp.0.conv/aten::_convolution/Add" type="Add" version="opset1">
			<data auto_broadcast="numpy" />
			<input>
				<port id="0" precision="FP32">
					<dim>1</dim>
					<dim>128</dim>
					<dim>40</dim>
					<dim>40</dim>
				</port>
				<port id="1" precision="FP32">
					<dim>1</dim>
					<dim>128</dim>
					<dim>1</dim>
					<dim>1</dim>
				</port>
			</input>
			<output>
				<port id="2" precision="FP32" names="389_1">
					<dim>1</dim>
					<dim>128</dim>
					<dim>40</dim>
					<dim>40</dim>
				</port>
			</output>
		</layer>
		<layer id="189" name="__module.model.21.cv3.2.1.1.act/aten::silu_/Swish_13" type="Swish" version="opset4">
			<input>
				<port id="0" precision="FP32">
					<dim>1</dim>
					<dim>128</dim>
					<dim>40</dim>
					<dim>40</dim>
				</port>
			</input>
			<output>
				<port id="1" precision="FP32" names="389,input.57">
					<dim>1</dim>
					<dim>128</dim>
					<dim>40</dim>
					<dim>40</dim>
				</port>
			</output>
		</layer>
		<layer id="190" name="self.model.6.m.0.0.mlp.1.conv.weight" type="Const" version="opset1">
			<data element_type="f32" shape="64, 128, 1, 1" offset="974996" size="32768" />
			<output>
				<port id="0" precision="FP32" names="self.model.6.m.0.0.mlp.1.conv.weight">
					<dim>64</dim>
					<dim>128</dim>
					<dim>1</dim>
					<dim>1</dim>
				</port>
			</output>
		</layer>
		<layer id="191" name="__module.model.6.m.0.0.mlp.1.conv/aten::_convolution/Convolution" type="Convolution" version="opset1">
			<data strides="1, 1" dilations="1, 1" pads_begin="0, 0" pads_end="0, 0" auto_pad="explicit" />
			<input>
				<port id="0" precision="FP32">
					<dim>1</dim>
					<dim>128</dim>
					<dim>40</dim>
					<dim>40</dim>
				</port>
				<port id="1" precision="FP32">
					<dim>64</dim>
					<dim>128</dim>
					<dim>1</dim>
					<dim>1</dim>
				</port>
			</input>
			<output>
				<port id="2" precision="FP32">
					<dim>1</dim>
					<dim>64</dim>
					<dim>40</dim>
					<dim>40</dim>
				</port>
			</output>
		</layer>
		<layer id="192" name="__module.model.6.m.0.0.mlp.1.conv/aten::_convolution/Reshape" type="Const" version="opset1">
			<data element_type="f32" shape="1, 64, 1, 1" offset="1007764" size="256" />
			<output>
				<port id="0" precision="FP32">
					<dim>1</dim>
					<dim>64</dim>
					<dim>1</dim>
					<dim>1</dim>
				</port>
			</output>
		</layer>
		<layer id="193" name="__module.model.6.m.0.0.mlp.1.conv/aten::_convolution/Add" type="Add" version="opset1">
			<data auto_broadcast="numpy" />
			<input>
				<port id="0" precision="FP32">
					<dim>1</dim>
					<dim>64</dim>
					<dim>40</dim>
					<dim>40</dim>
				</port>
				<port id="1" precision="FP32">
					<dim>1</dim>
					<dim>64</dim>
					<dim>1</dim>
					<dim>1</dim>
				</port>
			</input>
			<output>
				<port id="2" precision="FP32" names="399">
					<dim>1</dim>
					<dim>64</dim>
					<dim>40</dim>
					<dim>40</dim>
				</port>
			</output>
		</layer>
		<layer id="194" name="__module.model.6.m.0.0/aten::add/Add_1" type="Add" version="opset1">
			<data auto_broadcast="numpy" />
			<input>
				<port id="0" precision="FP32">
					<dim>1</dim>
					<dim>64</dim>
					<dim>40</dim>
					<dim>40</dim>
				</port>
				<port id="1" precision="FP32">
					<dim>1</dim>
					<dim>64</dim>
					<dim>40</dim>
					<dim>40</dim>
				</port>
			</input>
			<output>
				<port id="2" precision="FP32" names="400,x.13">
					<dim>1</dim>
					<dim>64</dim>
					<dim>40</dim>
					<dim>40</dim>
				</port>
			</output>
		</layer>
		<layer id="195" name="self.model.6.m.0.1.attn.v.conv.weight" type="Const" version="opset1">
			<data element_type="f32" shape="64, 64, 1, 1" offset="1008020" size="16384" />
			<output>
				<port id="0" precision="FP32" names="self.model.6.m.0.1.attn.v.conv.weight">
					<dim>64</dim>
					<dim>64</dim>
					<dim>1</dim>
					<dim>1</dim>
				</port>
			</output>
		</layer>
		<layer id="196" name="__module.model.6.m.0.1.attn.v.conv/aten::_convolution/Convolution" type="Convolution" version="opset1">
			<data strides="1, 1" dilations="1, 1" pads_begin="0, 0" pads_end="0, 0" auto_pad="explicit" />
			<input>
				<port id="0" precision="FP32">
					<dim>1</dim>
					<dim>64</dim>
					<dim>40</dim>
					<dim>40</dim>
				</port>
				<port id="1" precision="FP32">
					<dim>64</dim>
					<dim>64</dim>
					<dim>1</dim>
					<dim>1</dim>
				</port>
			</input>
			<output>
				<port id="2" precision="FP32">
					<dim>1</dim>
					<dim>64</dim>
					<dim>40</dim>
					<dim>40</dim>
				</port>
			</output>
		</layer>
		<layer id="197" name="__module.model.6.m.0.1.attn.v.conv/aten::_convolution/Reshape" type="Const" version="opset1">
			<data element_type="f32" shape="1, 64, 1, 1" offset="1024404" size="256" />
			<output>
				<port id="0" precision="FP32">
					<dim>1</dim>
					<dim>64</dim>
					<dim>1</dim>
					<dim>1</dim>
				</port>
			</output>
		</layer>
		<layer id="198" name="__module.model.6.m.0.1.attn.v.conv/aten::_convolution/Add" type="Add" version="opset1">
			<data auto_broadcast="numpy" />
			<input>
				<port id="0" precision="FP32">
					<dim>1</dim>
					<dim>64</dim>
					<dim>40</dim>
					<dim>40</dim>
				</port>
				<port id="1" precision="FP32">
					<dim>1</dim>
					<dim>64</dim>
					<dim>1</dim>
					<dim>1</dim>
				</port>
			</input>
			<output>
				<port id="2" precision="FP32" names="433,input.61">
					<dim>1</dim>
					<dim>64</dim>
					<dim>40</dim>
					<dim>40</dim>
				</port>
			</output>
		</layer>
		<layer id="199" name="Constant_42773" type="Const" version="opset1">
			<data element_type="i64" shape="3" offset="884936" size="24" />
			<output>
				<port id="0" precision="I64">
					<dim>3</dim>
				</port>
			</output>
		</layer>
		<layer id="200" name="__module.model.6.m.0.1.attn/aten::flatten/Reshape" type="Reshape" version="opset1">
			<data special_zero="true" />
			<input>
				<port id="0" precision="FP32">
					<dim>1</dim>
					<dim>64</dim>
					<dim>40</dim>
					<dim>40</dim>
				</port>
				<port id="1" precision="I64">
					<dim>3</dim>
				</port>
			</input>
			<output>
				<port id="2" precision="FP32" names="442">
					<dim>1</dim>
					<dim>64</dim>
					<dim>1600</dim>
				</port>
			</output>
		</layer>
		<layer id="201" name="__module.model.6.m.0.1.attn/aten::transpose/Constant" type="Const" version="opset1">
			<data element_type="i32" shape="3" offset="884960" size="12" />
			<output>
				<port id="0" precision="I32">
					<dim>3</dim>
				</port>
			</output>
		</layer>
		<layer id="202" name="__module.model.6.m.0.1.attn/aten::transpose/Transpose" type="Transpose" version="opset1">
			<input>
				<port id="0" precision="FP32">
					<dim>1</dim>
					<dim>64</dim>
					<dim>1600</dim>
				</port>
				<port id="1" precision="I32">
					<dim>3</dim>
				</port>
			</input>
			<output>
				<port id="2" precision="FP32" names="443,v.7">
					<dim>1</dim>
					<dim>1600</dim>
					<dim>64</dim>
				</port>
			</output>
		</layer>
		<layer id="203" name="self.model.6.m.0.1.attn.qk.conv.weight" type="Const" version="opset1">
			<data element_type="f32" shape="128, 64, 1, 1" offset="1024660" size="32768" />
			<output>
				<port id="0" precision="FP32" names="self.model.6.m.0.1.attn.qk.conv.weight">
					<dim>128</dim>
					<dim>64</dim>
					<dim>1</dim>
					<dim>1</dim>
				</port>
			</output>
		</layer>
		<layer id="204" name="__module.model.6.m.0.1.attn.qk.conv/aten::_convolution/Convolution" type="Convolution" version="opset1">
			<data strides="1, 1" dilations="1, 1" pads_begin="0, 0" pads_end="0, 0" auto_pad="explicit" />
			<input>
				<port id="0" precision="FP32">
					<dim>1</dim>
					<dim>64</dim>
					<dim>40</dim>
					<dim>40</dim>
				</port>
				<port id="1" precision="FP32">
					<dim>128</dim>
					<dim>64</dim>
					<dim>1</dim>
					<dim>1</dim>
				</port>
			</input>
			<output>
				<port id="2" precision="FP32">
					<dim>1</dim>
					<dim>128</dim>
					<dim>40</dim>
					<dim>40</dim>
				</port>
			</output>
		</layer>
		<layer id="205" name="__module.model.6.m.0.1.attn.qk.conv/aten::_convolution/Reshape" type="Const" version="opset1">
			<data element_type="f32" shape="1, 128, 1, 1" offset="1057428" size="512" />
			<output>
				<port id="0" precision="FP32">
					<dim>1</dim>
					<dim>128</dim>
					<dim>1</dim>
					<dim>1</dim>
				</port>
			</output>
		</layer>
		<layer id="206" name="__module.model.6.m.0.1.attn.qk.conv/aten::_convolution/Add" type="Add" version="opset1">
			<data auto_broadcast="numpy" />
			<input>
				<port id="0" precision="FP32">
					<dim>1</dim>
					<dim>128</dim>
					<dim>40</dim>
					<dim>40</dim>
				</port>
				<port id="1" precision="FP32">
					<dim>1</dim>
					<dim>128</dim>
					<dim>1</dim>
					<dim>1</dim>
				</port>
			</input>
			<output>
				<port id="2" precision="FP32" names="423">
					<dim>1</dim>
					<dim>128</dim>
					<dim>40</dim>
					<dim>40</dim>
				</port>
			</output>
		</layer>
		<layer id="207" name="ShapeOf_42498" type="ShapeOf" version="opset3">
			<data output_type="i64" />
			<input>
				<port id="0" precision="FP32">
					<dim>1</dim>
					<dim>128</dim>
					<dim>40</dim>
					<dim>40</dim>
				</port>
			</input>
			<output>
				<port id="1" precision="I64">
					<dim>4</dim>
				</port>
			</output>
		</layer>
		<layer id="208" name="Constant_42499" type="Const" version="opset1">
			<data element_type="i64" shape="1" offset="918252" size="8" />
			<output>
				<port id="0" precision="I64">
					<dim>1</dim>
				</port>
			</output>
		</layer>
		<layer id="209" name="Constant_42500" type="Const" version="opset1">
			<data element_type="i64" shape="" offset="918252" size="8" />
			<output>
				<port id="0" precision="I64" />
			</output>
		</layer>
		<layer id="210" name="Gather_42501" type="Gather" version="opset8">
			<data batch_dims="0" />
			<input>
				<port id="0" precision="I64">
					<dim>4</dim>
				</port>
				<port id="1" precision="I64">
					<dim>1</dim>
				</port>
				<port id="2" precision="I64" />
			</input>
			<output>
				<port id="3" precision="I64" names="407">
					<dim>1</dim>
				</port>
			</output>
		</layer>
		<layer id="211" name="Constant_35644" type="Const" version="opset1">
			<data element_type="i64" shape="1" offset="918260" size="8" />
			<output>
				<port id="0" precision="I64">
					<dim>1</dim>
				</port>
			</output>
		</layer>
		<layer id="212" name="__module.model.6.m.0.1.attn/aten::mul/Multiply" type="Multiply" version="opset1">
			<data auto_broadcast="numpy" />
			<input>
				<port id="0" precision="I64">
					<dim>1</dim>
				</port>
				<port id="1" precision="I64">
					<dim>1</dim>
				</port>
			</input>
			<output>
				<port id="2" precision="I64" names="444,445,452,453">
					<dim>1</dim>
				</port>
			</output>
		</layer>
		<layer id="213" name="ShapeOf_42502" type="ShapeOf" version="opset3">
			<data output_type="i64" />
			<input>
				<port id="0" precision="FP32">
					<dim>1</dim>
					<dim>64</dim>
					<dim>40</dim>
					<dim>40</dim>
				</port>
			</input>
			<output>
				<port id="1" precision="I64">
					<dim>4</dim>
				</port>
			</output>
		</layer>
		<layer id="214" name="Constant_42503" type="Const" version="opset1">
			<data element_type="i64" shape="" offset="918268" size="8" />
			<output>
				<port id="0" precision="I64" />
			</output>
		</layer>
		<layer id="215" name="Constant_42504" type="Const" version="opset1">
			<data element_type="i64" shape="" offset="918252" size="8" />
			<output>
				<port id="0" precision="I64" />
			</output>
		</layer>
		<layer id="216" name="Gather_42505" type="Gather" version="opset8">
			<data batch_dims="0" />
			<input>
				<port id="0" precision="I64">
					<dim>4</dim>
				</port>
				<port id="1" precision="I64" />
				<port id="2" precision="I64" />
			</input>
			<output>
				<port id="3" precision="I64" names="411" />
			</output>
		</layer>
		<layer id="217" name="Constant_42507" type="Const" version="opset1">
			<data element_type="i64" shape="" offset="918276" size="8" />
			<output>
				<port id="0" precision="I64" />
			</output>
		</layer>
		<layer id="218" name="Constant_42508" type="Const" version="opset1">
			<data element_type="i64" shape="" offset="918252" size="8" />
			<output>
				<port id="0" precision="I64" />
			</output>
		</layer>
		<layer id="219" name="Gather_42509" type="Gather" version="opset8">
			<data batch_dims="0" />
			<input>
				<port id="0" precision="I64">
					<dim>4</dim>
				</port>
				<port id="1" precision="I64" />
				<port id="2" precision="I64" />
			</input>
			<output>
				<port id="3" precision="I64" names="413" />
			</output>
		</layer>
		<layer id="220" name="__module.model.6.m.0.1.attn/aten::mul/Multiply_1" type="Multiply" version="opset1">
			<data auto_broadcast="numpy" />
			<input>
				<port id="0" precision="I64" />
				<port id="1" precision="I64" />
			</input>
			<output>
				<port id="2" precision="I64" names="415" />
			</output>
		</layer>
		<layer id="221" name="__module.model.6.m.0.1.attn/aten::floor_divide/Divide" type="Divide" version="opset1">
			<data auto_broadcast="numpy" m_pythondiv="true" />
			<input>
				<port id="0" precision="I64" />
				<port id="1" precision="I64" />
			</input>
			<output>
				<port id="2" precision="I64" />
			</output>
		</layer>
		<layer id="222" name="__module.model.6.m.0.1.attn/aten::floor_divide/Floor" type="Floor" version="opset1">
			<input>
				<port id="0" precision="I64" />
			</input>
			<output>
				<port id="1" precision="I64" names="446,447,454,455" />
			</output>
		</layer>
		<layer id="223" name="Constant_3896" type="Const" version="opset1">
			<data element_type="i32" shape="" offset="918284" size="4" />
			<output>
				<port id="0" precision="I32" />
			</output>
		</layer>
		<layer id="224" name="Unsqueeze_3898" type="Unsqueeze" version="opset1">
			<input>
				<port id="0" precision="I64" />
				<port id="1" precision="I32" />
			</input>
			<output>
				<port id="2" precision="I64">
					<dim>1</dim>
				</port>
			</output>
		</layer>
		<layer id="225" name="Constant_4066" type="Const" version="opset1">
			<data element_type="i64" shape="1" offset="918288" size="8" />
			<output>
				<port id="0" precision="I64">
					<dim>1</dim>
				</port>
			</output>
		</layer>
		<layer id="226" name="__module.model.6.m.0.1.attn/prim::ListConstruct" type="Concat" version="opset1">
			<data axis="0" />
			<input>
				<port id="0" precision="I64">
					<dim>1</dim>
				</port>
				<port id="1" precision="I64">
					<dim>1</dim>
				</port>
				<port id="2" precision="I64">
					<dim>1</dim>
				</port>
			</input>
			<output>
				<port id="3" precision="I64">
					<dim>3</dim>
				</port>
			</output>
		</layer>
		<layer id="227" name="__module.model.6.m.0.1.attn/aten::reshape/Reshape" type="Reshape" version="opset1">
			<data special_zero="false" />
			<input>
				<port id="0" precision="FP32">
					<dim>1</dim>
					<dim>1600</dim>
					<dim>64</dim>
				</port>
				<port id="1" precision="I64">
					<dim>3</dim>
				</port>
			</input>
			<output>
				<port id="2" precision="FP32" names="457,v.9">
					<dim>4</dim>
					<dim>400</dim>
					<dim>64</dim>
				</port>
			</output>
		</layer>
		<layer id="228" name="__module.model.6.m.0.1.attn/aten::transpose/Constant_1" type="Const" version="opset1">
			<data element_type="i32" shape="3" offset="884960" size="12" />
			<output>
				<port id="0" precision="I32">
					<dim>3</dim>
				</port>
			</output>
		</layer>
		<layer id="229" name="__module.model.6.m.0.1.attn/aten::transpose/Transpose_1" type="Transpose" version="opset1">
			<input>
				<port id="0" precision="FP32">
					<dim>4</dim>
					<dim>400</dim>
					<dim>64</dim>
				</port>
				<port id="1" precision="I32">
					<dim>3</dim>
				</port>
			</input>
			<output>
				<port id="2" precision="FP32" names="472">
					<dim>4</dim>
					<dim>64</dim>
					<dim>400</dim>
				</port>
			</output>
		</layer>
		<layer id="230" name="Constant_42774" type="Const" version="opset1">
			<data element_type="i64" shape="3" offset="918296" size="24" />
			<output>
				<port id="0" precision="I64">
					<dim>3</dim>
				</port>
			</output>
		</layer>
		<layer id="231" name="__module.model.6.m.0.1.attn/aten::flatten/Reshape_1" type="Reshape" version="opset1">
			<data special_zero="true" />
			<input>
				<port id="0" precision="FP32">
					<dim>1</dim>
					<dim>128</dim>
					<dim>40</dim>
					<dim>40</dim>
				</port>
				<port id="1" precision="I64">
					<dim>3</dim>
				</port>
			</input>
			<output>
				<port id="2" precision="FP32" names="424">
					<dim>1</dim>
					<dim>128</dim>
					<dim>1600</dim>
				</port>
			</output>
		</layer>
		<layer id="232" name="__module.model.6.m.0.1.attn/aten::transpose/Constant_2" type="Const" version="opset1">
			<data element_type="i32" shape="3" offset="884960" size="12" />
			<output>
				<port id="0" precision="I32">
					<dim>3</dim>
				</port>
			</output>
		</layer>
		<layer id="233" name="__module.model.6.m.0.1.attn/aten::transpose/Transpose_2" type="Transpose" version="opset1">
			<input>
				<port id="0" precision="FP32">
					<dim>1</dim>
					<dim>128</dim>
					<dim>1600</dim>
				</port>
				<port id="1" precision="I32">
					<dim>3</dim>
				</port>
			</input>
			<output>
				<port id="2" precision="FP32" names="425,qk.5">
					<dim>1</dim>
					<dim>1600</dim>
					<dim>128</dim>
				</port>
			</output>
		</layer>
		<layer id="234" name="Constant_3548" type="Const" version="opset1">
			<data element_type="i64" shape="1" offset="918320" size="8" />
			<output>
				<port id="0" precision="I64">
					<dim>1</dim>
				</port>
			</output>
		</layer>
		<layer id="235" name="__module.model.6.m.0.1.attn/prim::ListConstruct_1" type="Concat" version="opset1">
			<data axis="0" />
			<input>
				<port id="0" precision="I64">
					<dim>1</dim>
				</port>
				<port id="1" precision="I64">
					<dim>1</dim>
				</port>
				<port id="2" precision="I64">
					<dim>1</dim>
				</port>
			</input>
			<output>
				<port id="3" precision="I64">
					<dim>3</dim>
				</port>
			</output>
		</layer>
		<layer id="236" name="__module.model.6.m.0.1.attn/aten::reshape/Reshape_1" type="Reshape" version="opset1">
			<data special_zero="false" />
			<input>
				<port id="0" precision="FP32">
					<dim>1</dim>
					<dim>1600</dim>
					<dim>128</dim>
				</port>
				<port id="1" precision="I64">
					<dim>3</dim>
				</port>
			</input>
			<output>
				<port id="2" precision="FP32" names="451,qk.7">
					<dim>4</dim>
					<dim>400</dim>
					<dim>128</dim>
				</port>
			</output>
		</layer>
		<layer id="237" name="ShapeOf_42520" type="ShapeOf" version="opset3">
			<data output_type="i64" />
			<input>
				<port id="0" precision="FP32">
					<dim>4</dim>
					<dim>400</dim>
					<dim>128</dim>
				</port>
			</input>
			<output>
				<port id="1" precision="I64">
					<dim>3</dim>
				</port>
			</output>
		</layer>
		<layer id="238" name="Constant_42521" type="Const" version="opset1">
			<data element_type="i64" shape="" offset="918252" size="8" />
			<output>
				<port id="0" precision="I64" />
			</output>
		</layer>
		<layer id="239" name="Constant_42522" type="Const" version="opset1">
			<data element_type="i64" shape="" offset="918252" size="8" />
			<output>
				<port id="0" precision="I64" />
			</output>
		</layer>
		<layer id="240" name="Gather_42523" type="Gather" version="opset8">
			<data batch_dims="0" />
			<input>
				<port id="0" precision="I64">
					<dim>3</dim>
				</port>
				<port id="1" precision="I64" />
				<port id="2" precision="I64" />
			</input>
			<output>
				<port id="3" precision="I64" names="458" />
			</output>
		</layer>
		<layer id="241" name="Constant_42524" type="Const" version="opset1">
			<data element_type="i64" shape="1" offset="82560" size="8" />
			<output>
				<port id="0" precision="I64">
					<dim>1</dim>
				</port>
			</output>
		</layer>
		<layer id="242" name="Reshape_42525" type="Reshape" version="opset1">
			<data special_zero="false" />
			<input>
				<port id="0" precision="I64" />
				<port id="1" precision="I64">
					<dim>1</dim>
				</port>
			</input>
			<output>
				<port id="2" precision="I64">
					<dim>1</dim>
				</port>
			</output>
		</layer>
		<layer id="243" name="Constant_4536" type="Const" version="opset1">
			<data element_type="i64" shape="1" offset="918268" size="8" />
			<output>
				<port id="0" precision="I64">
					<dim>1</dim>
				</port>
			</output>
		</layer>
		<layer id="244" name="Constant_4537" type="Const" version="opset1">
			<data element_type="i64" shape="1" offset="918328" size="8" />
			<output>
				<port id="0" precision="I64">
					<dim>1</dim>
				</port>
			</output>
		</layer>
		<layer id="245" name="Constant_42527" type="Const" version="opset1">
			<data element_type="i64" shape="1" offset="82560" size="8" />
			<output>
				<port id="0" precision="I64">
					<dim>1</dim>
				</port>
			</output>
		</layer>
		<layer id="246" name="Constant_42528" type="Const" version="opset1">
			<data element_type="i64" shape="" offset="918252" size="8" />
			<output>
				<port id="0" precision="I64" />
			</output>
		</layer>
		<layer id="247" name="Gather_42529" type="Gather" version="opset8">
			<data batch_dims="0" />
			<input>
				<port id="0" precision="I64">
					<dim>3</dim>
				</port>
				<port id="1" precision="I64">
					<dim>1</dim>
				</port>
				<port id="2" precision="I64" />
			</input>
			<output>
				<port id="3" precision="I64" names="460">
					<dim>1</dim>
				</port>
			</output>
		</layer>
		<layer id="248" name="__module.model.6.m.0.1.attn/prim::ListConstruct_2" type="Concat" version="opset1">
			<data axis="0" />
			<input>
				<port id="0" precision="I64">
					<dim>1</dim>
				</port>
				<port id="1" precision="I64">
					<dim>1</dim>
				</port>
				<port id="2" precision="I64">
					<dim>1</dim>
				</port>
				<port id="3" precision="I64">
					<dim>1</dim>
				</port>
			</input>
			<output>
				<port id="4" precision="I64">
					<dim>4</dim>
				</port>
			</output>
		</layer>
		<layer id="249" name="__module.model.6.m.0.1.attn/aten::view/Reshape" type="Reshape" version="opset1">
			<data special_zero="false" />
			<input>
				<port id="0" precision="FP32">
					<dim>4</dim>
					<dim>64</dim>
					<dim>400</dim>
				</port>
				<port id="1" precision="I64">
					<dim>4</dim>
				</port>
			</input>
			<output>
				<port id="2" precision="FP32" names="474,v.11">
					<dim>4</dim>
					<dim>2</dim>
					<dim>32</dim>
					<dim>400</dim>
				</port>
			</output>
		</layer>
		<layer id="250" name="__module.model.6.m.0.1.attn/prim::ListUnpack" type="VariadicSplit" version="opset1">
			<input>
				<port id="0" precision="FP32">
					<dim>4</dim>
					<dim>400</dim>
					<dim>128</dim>
				</port>
				<port id="1" precision="I64" />
				<port id="2" precision="I64">
					<dim>2</dim>
				</port>
			</input>
			<output>
				<port id="3" precision="FP32" names="464,q.5">
					<dim>4</dim>
					<dim>400</dim>
					<dim>64</dim>
				</port>
				<port id="4" precision="FP32" names="465,k.5">
					<dim>4</dim>
					<dim>400</dim>
					<dim>64</dim>
				</port>
			</output>
		</layer>
		<layer id="251" name="__module.model.6.m.0.1.attn/aten::transpose/Constant_3" type="Const" version="opset1">
			<data element_type="i32" shape="3" offset="884960" size="12" />
			<output>
				<port id="0" precision="I32">
					<dim>3</dim>
				</port>
			</output>
		</layer>
		<layer id="252" name="__module.model.6.m.0.1.attn/aten::transpose/Transpose_3" type="Transpose" version="opset1">
			<input>
				<port id="0" precision="FP32">
					<dim>4</dim>
					<dim>400</dim>
					<dim>64</dim>
				</port>
				<port id="1" precision="I32">
					<dim>3</dim>
				</port>
			</input>
			<output>
				<port id="2" precision="FP32" names="466">
					<dim>4</dim>
					<dim>64</dim>
					<dim>400</dim>
				</port>
			</output>
		</layer>
		<layer id="253" name="Constant_42775" type="Const" version="opset1">
			<data element_type="i64" shape="4" offset="918352" size="32" />
			<output>
				<port id="0" precision="I64">
					<dim>4</dim>
				</port>
			</output>
		</layer>
		<layer id="254" name="__module.model.6.m.0.1.attn/aten::view/Reshape_1" type="Reshape" version="opset1">
			<data special_zero="true" />
			<input>
				<port id="0" precision="FP32">
					<dim>4</dim>
					<dim>64</dim>
					<dim>400</dim>
				</port>
				<port id="1" precision="I64">
					<dim>4</dim>
				</port>
			</input>
			<output>
				<port id="2" precision="FP32" names="468,q.7">
					<dim>4</dim>
					<dim>2</dim>
					<dim>32</dim>
					<dim>400</dim>
				</port>
			</output>
		</layer>
		<layer id="255" name="__module.model.6.m.0.1.attn/aten::transpose/Constant_5" type="Const" version="opset1">
			<data element_type="i32" shape="3" offset="884960" size="12" />
			<output>
				<port id="0" precision="I32">
					<dim>3</dim>
				</port>
			</output>
		</layer>
		<layer id="256" name="__module.model.6.m.0.1.attn/aten::transpose/Transpose_5" type="Transpose" version="opset1">
			<input>
				<port id="0" precision="FP32">
					<dim>4</dim>
					<dim>400</dim>
					<dim>64</dim>
				</port>
				<port id="1" precision="I32">
					<dim>3</dim>
				</port>
			</input>
			<output>
				<port id="2" precision="FP32" names="469">
					<dim>4</dim>
					<dim>64</dim>
					<dim>400</dim>
				</port>
			</output>
		</layer>
		<layer id="257" name="Constant_42776" type="Const" version="opset1">
			<data element_type="i64" shape="4" offset="918352" size="32" />
			<output>
				<port id="0" precision="I64">
					<dim>4</dim>
				</port>
			</output>
		</layer>
		<layer id="258" name="__module.model.6.m.0.1.attn/aten::view/Reshape_2" type="Reshape" version="opset1">
			<data special_zero="true" />
			<input>
				<port id="0" precision="FP32">
					<dim>4</dim>
					<dim>64</dim>
					<dim>400</dim>
				</port>
				<port id="1" precision="I64">
					<dim>4</dim>
				</port>
			</input>
			<output>
				<port id="2" precision="FP32" names="471,k.7">
					<dim>4</dim>
					<dim>2</dim>
					<dim>32</dim>
					<dim>400</dim>
				</port>
			</output>
		</layer>
		<layer id="259" name="Constant_40379" type="Const" version="opset1">
			<data element_type="f32" shape="1, 1, 1, 1" offset="918384" size="4" />
			<output>
				<port id="0" precision="FP32">
					<dim>1</dim>
					<dim>1</dim>
					<dim>1</dim>
					<dim>1</dim>
				</port>
			</output>
		</layer>
		<layer id="260" name="Multiply_40106" type="Multiply" version="opset1">
			<data auto_broadcast="numpy" />
			<input>
				<port id="0" precision="FP32">
					<dim>4</dim>
					<dim>2</dim>
					<dim>32</dim>
					<dim>400</dim>
				</port>
				<port id="1" precision="FP32">
					<dim>1</dim>
					<dim>1</dim>
					<dim>1</dim>
					<dim>1</dim>
				</port>
			</input>
			<output>
				<port id="2" precision="FP32">
					<dim>4</dim>
					<dim>2</dim>
					<dim>32</dim>
					<dim>400</dim>
				</port>
			</output>
		</layer>
		<layer id="261" name="__module.model.6.m.0.1.attn/aten::mul/Multiply_3" type="MatMul" version="opset1">
			<data transpose_a="true" transpose_b="false" />
			<input>
				<port id="0" precision="FP32">
					<dim>4</dim>
					<dim>2</dim>
					<dim>32</dim>
					<dim>400</dim>
				</port>
				<port id="1" precision="FP32">
					<dim>4</dim>
					<dim>2</dim>
					<dim>32</dim>
					<dim>400</dim>
				</port>
			</input>
			<output>
				<port id="2" precision="FP32" names="477,attn.5">
					<dim>4</dim>
					<dim>2</dim>
					<dim>400</dim>
					<dim>400</dim>
				</port>
			</output>
		</layer>
		<layer id="262" name="__module.model.6.m.0.1.attn/aten::div/Divide" type="SoftMax" version="opset1">
			<data axis="3" />
			<input>
				<port id="0" precision="FP32">
					<dim>4</dim>
					<dim>2</dim>
					<dim>400</dim>
					<dim>400</dim>
				</port>
			</input>
			<output>
				<port id="1" precision="FP32" names="484,attn.7">
					<dim>4</dim>
					<dim>2</dim>
					<dim>400</dim>
					<dim>400</dim>
				</port>
			</output>
		</layer>
		<layer id="263" name="__module.model.6.m.0.1.attn/aten::matmul/MatMul_1" type="MatMul" version="opset1">
			<data transpose_a="false" transpose_b="true" />
			<input>
				<port id="0" precision="FP32">
					<dim>4</dim>
					<dim>2</dim>
					<dim>32</dim>
					<dim>400</dim>
				</port>
				<port id="1" precision="FP32">
					<dim>4</dim>
					<dim>2</dim>
					<dim>400</dim>
					<dim>400</dim>
				</port>
			</input>
			<output>
				<port id="2" precision="FP32" names="486,x.15">
					<dim>4</dim>
					<dim>2</dim>
					<dim>32</dim>
					<dim>400</dim>
				</port>
			</output>
		</layer>
		<layer id="264" name="Constant_4725" type="Const" version="opset1">
			<data element_type="i64" shape="4" offset="918388" size="32" />
			<output>
				<port id="0" precision="I64" names="487">
					<dim>4</dim>
				</port>
			</output>
		</layer>
		<layer id="265" name="__module.model.6.m.0.1.attn/aten::permute/Transpose" type="Transpose" version="opset1">
			<input>
				<port id="0" precision="FP32">
					<dim>4</dim>
					<dim>2</dim>
					<dim>32</dim>
					<dim>400</dim>
				</port>
				<port id="1" precision="I64">
					<dim>4</dim>
				</port>
			</input>
			<output>
				<port id="2" precision="FP32" names="488,x.17">
					<dim>4</dim>
					<dim>400</dim>
					<dim>2</dim>
					<dim>32</dim>
				</port>
			</output>
		</layer>
		<layer id="266" name="__module.model.6.m.0.1.attn/aten::floor_divide/Divide_2" type="Divide" version="opset1">
			<data auto_broadcast="numpy" m_pythondiv="true" />
			<input>
				<port id="0" precision="I64" />
				<port id="1" precision="I64" />
			</input>
			<output>
				<port id="2" precision="I64" />
			</output>
		</layer>
		<layer id="267" name="__module.model.6.m.0.1.attn/aten::floor_divide/Floor_2" type="Floor" version="opset1">
			<input>
				<port id="0" precision="I64" />
			</input>
			<output>
				<port id="1" precision="I64" names="489,490" />
			</output>
		</layer>
		<layer id="268" name="Constant_4743" type="Const" version="opset1">
			<data element_type="i32" shape="" offset="918284" size="4" />
			<output>
				<port id="0" precision="I32" />
			</output>
		</layer>
		<layer id="269" name="Unsqueeze_4746" type="Unsqueeze" version="opset1">
			<input>
				<port id="0" precision="I64" />
				<port id="1" precision="I32" />
			</input>
			<output>
				<port id="2" precision="I64">
					<dim>1</dim>
				</port>
			</output>
		</layer>
		<layer id="270" name="Constant_35647" type="Const" version="opset1">
			<data element_type="i64" shape="1" offset="918260" size="8" />
			<output>
				<port id="0" precision="I64">
					<dim>1</dim>
				</port>
			</output>
		</layer>
		<layer id="271" name="__module.model.6.m.0.1.attn/aten::mul/Multiply_4" type="Multiply" version="opset1">
			<data auto_broadcast="numpy" />
			<input>
				<port id="0" precision="I64">
					<dim>1</dim>
				</port>
				<port id="1" precision="I64">
					<dim>1</dim>
				</port>
			</input>
			<output>
				<port id="2" precision="I64" names="491,492">
					<dim>1</dim>
				</port>
			</output>
		</layer>
		<layer id="272" name="Constant_4849" type="Const" version="opset1">
			<data element_type="i64" shape="1" offset="918288" size="8" />
			<output>
				<port id="0" precision="I64">
					<dim>1</dim>
				</port>
			</output>
		</layer>
		<layer id="273" name="__module.model.6.m.0.1.attn/prim::ListConstruct_5" type="Concat" version="opset1">
			<data axis="0" />
			<input>
				<port id="0" precision="I64">
					<dim>1</dim>
				</port>
				<port id="1" precision="I64">
					<dim>1</dim>
				</port>
				<port id="2" precision="I64">
					<dim>1</dim>
				</port>
			</input>
			<output>
				<port id="3" precision="I64">
					<dim>3</dim>
				</port>
			</output>
		</layer>
		<layer id="274" name="__module.model.6.m.0.1.attn/aten::reshape/Reshape_2" type="Reshape" version="opset1">
			<data special_zero="false" />
			<input>
				<port id="0" precision="FP32">
					<dim>4</dim>
					<dim>400</dim>
					<dim>2</dim>
					<dim>32</dim>
				</port>
				<port id="1" precision="I64">
					<dim>3</dim>
				</port>
			</input>
			<output>
				<port id="2" precision="FP32" names="494,x.19">
					<dim>1</dim>
					<dim>1600</dim>
					<dim>64</dim>
				</port>
			</output>
		</layer>
		<layer id="275" name="ShapeOf_42534" type="ShapeOf" version="opset3">
			<data output_type="i64" />
			<input>
				<port id="0" precision="FP32">
					<dim>1</dim>
					<dim>1600</dim>
					<dim>64</dim>
				</port>
			</input>
			<output>
				<port id="1" precision="I64">
					<dim>3</dim>
				</port>
			</output>
		</layer>
		<layer id="276" name="Constant_42535" type="Const" version="opset1">
			<data element_type="i64" shape="1" offset="918252" size="8" />
			<output>
				<port id="0" precision="I64">
					<dim>1</dim>
				</port>
			</output>
		</layer>
		<layer id="277" name="Constant_42536" type="Const" version="opset1">
			<data element_type="i64" shape="" offset="918252" size="8" />
			<output>
				<port id="0" precision="I64" />
			</output>
		</layer>
		<layer id="278" name="Gather_42537" type="Gather" version="opset8">
			<data batch_dims="0" />
			<input>
				<port id="0" precision="I64">
					<dim>3</dim>
				</port>
				<port id="1" precision="I64">
					<dim>1</dim>
				</port>
				<port id="2" precision="I64" />
			</input>
			<output>
				<port id="3" precision="I64" names="495">
					<dim>1</dim>
				</port>
			</output>
		</layer>
		<layer id="279" name="Constant_42538" type="Const" version="opset1">
			<data element_type="i64" shape="1" offset="82560" size="8" />
			<output>
				<port id="0" precision="I64">
					<dim>1</dim>
				</port>
			</output>
		</layer>
		<layer id="280" name="Reshape_42539" type="Reshape" version="opset1">
			<data special_zero="false" />
			<input>
				<port id="0" precision="I64" />
				<port id="1" precision="I64">
					<dim>1</dim>
				</port>
			</input>
			<output>
				<port id="2" precision="I64">
					<dim>1</dim>
				</port>
			</output>
		</layer>
		<layer id="281" name="Constant_42540" type="Const" version="opset1">
			<data element_type="i64" shape="1" offset="82560" size="8" />
			<output>
				<port id="0" precision="I64">
					<dim>1</dim>
				</port>
			</output>
		</layer>
		<layer id="282" name="Reshape_42541" type="Reshape" version="opset1">
			<data special_zero="false" />
			<input>
				<port id="0" precision="I64" />
				<port id="1" precision="I64">
					<dim>1</dim>
				</port>
			</input>
			<output>
				<port id="2" precision="I64">
					<dim>1</dim>
				</port>
			</output>
		</layer>
		<layer id="283" name="Constant_4938" type="Const" version="opset1">
			<data element_type="i64" shape="1" offset="918288" size="8" />
			<output>
				<port id="0" precision="I64">
					<dim>1</dim>
				</port>
			</output>
		</layer>
		<layer id="284" name="__module.model.6.m.0.1.attn/prim::ListConstruct_6" type="Concat" version="opset1">
			<data axis="0" />
			<input>
				<port id="0" precision="I64">
					<dim>1</dim>
				</port>
				<port id="1" precision="I64">
					<dim>1</dim>
				</port>
				<port id="2" precision="I64">
					<dim>1</dim>
				</port>
				<port id="3" precision="I64">
					<dim>1</dim>
				</port>
			</input>
			<output>
				<port id="4" precision="I64">
					<dim>4</dim>
				</port>
			</output>
		</layer>
		<layer id="285" name="__module.model.6.m.0.1.attn/aten::reshape/Reshape_3" type="Reshape" version="opset1">
			<data special_zero="false" />
			<input>
				<port id="0" precision="FP32">
					<dim>1</dim>
					<dim>1600</dim>
					<dim>64</dim>
				</port>
				<port id="1" precision="I64">
					<dim>4</dim>
				</port>
			</input>
			<output>
				<port id="2" precision="FP32" names="497">
					<dim>1</dim>
					<dim>40</dim>
					<dim>40</dim>
					<dim>64</dim>
				</port>
			</output>
		</layer>
		<layer id="286" name="Constant_4947" type="Const" version="opset1">
			<data element_type="i64" shape="4" offset="918388" size="32" />
			<output>
				<port id="0" precision="I64" names="498">
					<dim>4</dim>
				</port>
			</output>
		</layer>
		<layer id="287" name="__module.model.6.m.0.1.attn/aten::permute/Transpose_1" type="Transpose" version="opset1">
			<input>
				<port id="0" precision="FP32">
					<dim>1</dim>
					<dim>40</dim>
					<dim>40</dim>
					<dim>64</dim>
				</port>
				<port id="1" precision="I64">
					<dim>4</dim>
				</port>
			</input>
			<output>
				<port id="2" precision="FP32" names="499,x.21">
					<dim>1</dim>
					<dim>64</dim>
					<dim>40</dim>
					<dim>40</dim>
				</port>
			</output>
		</layer>
		<layer id="288" name="__module.model.6.m.0.1.attn.pe.conv/aten::_convolution/Reshape" type="Const" version="opset1">
			<data element_type="f32" shape="64, 1, 1, 5, 5" offset="1057940" size="6400" />
			<output>
				<port id="0" precision="FP32">
					<dim>64</dim>
					<dim>1</dim>
					<dim>1</dim>
					<dim>5</dim>
					<dim>5</dim>
				</port>
			</output>
		</layer>
		<layer id="289" name="__module.model.6.m.0.1.attn.pe.conv/aten::_convolution/GroupConvolution" type="GroupConvolution" version="opset1">
			<data strides="1, 1" pads_begin="2, 2" pads_end="2, 2" dilations="1, 1" auto_pad="explicit" />
			<input>
				<port id="0" precision="FP32">
					<dim>1</dim>
					<dim>64</dim>
					<dim>40</dim>
					<dim>40</dim>
				</port>
				<port id="1" precision="FP32">
					<dim>64</dim>
					<dim>1</dim>
					<dim>1</dim>
					<dim>5</dim>
					<dim>5</dim>
				</port>
			</input>
			<output>
				<port id="2" precision="FP32">
					<dim>1</dim>
					<dim>64</dim>
					<dim>40</dim>
					<dim>40</dim>
				</port>
			</output>
		</layer>
		<layer id="290" name="__module.model.6.m.0.1.attn.pe.conv/aten::_convolution/Reshape_1" type="Const" version="opset1">
			<data element_type="f32" shape="1, 64, 1, 1" offset="1064340" size="256" />
			<output>
				<port id="0" precision="FP32">
					<dim>1</dim>
					<dim>64</dim>
					<dim>1</dim>
					<dim>1</dim>
				</port>
			</output>
		</layer>
		<layer id="291" name="__module.model.6.m.0.1.attn.pe.conv/aten::_convolution/Add" type="Add" version="opset1">
			<data auto_broadcast="numpy" />
			<input>
				<port id="0" precision="FP32">
					<dim>1</dim>
					<dim>64</dim>
					<dim>40</dim>
					<dim>40</dim>
				</port>
				<port id="1" precision="FP32">
					<dim>1</dim>
					<dim>64</dim>
					<dim>1</dim>
					<dim>1</dim>
				</port>
			</input>
			<output>
				<port id="2" precision="FP32" names="441,pp.3">
					<dim>1</dim>
					<dim>64</dim>
					<dim>40</dim>
					<dim>40</dim>
				</port>
			</output>
		</layer>
		<layer id="292" name="__module.model.6.m.0.1.attn/aten::add/Add" type="Add" version="opset1">
			<data auto_broadcast="numpy" />
			<input>
				<port id="0" precision="FP32">
					<dim>1</dim>
					<dim>64</dim>
					<dim>40</dim>
					<dim>40</dim>
				</port>
				<port id="1" precision="FP32">
					<dim>1</dim>
					<dim>64</dim>
					<dim>40</dim>
					<dim>40</dim>
				</port>
			</input>
			<output>
				<port id="2" precision="FP32" names="500,input.63">
					<dim>1</dim>
					<dim>64</dim>
					<dim>40</dim>
					<dim>40</dim>
				</port>
			</output>
		</layer>
		<layer id="293" name="self.model.6.m.0.1.attn.proj.conv.weight" type="Const" version="opset1">
			<data element_type="f32" shape="64, 64, 1, 1" offset="1064596" size="16384" />
			<output>
				<port id="0" precision="FP32" names="self.model.6.m.0.1.attn.proj.conv.weight">
					<dim>64</dim>
					<dim>64</dim>
					<dim>1</dim>
					<dim>1</dim>
				</port>
			</output>
		</layer>
		<layer id="294" name="__module.model.6.m.0.1.attn.proj.conv/aten::_convolution/Convolution" type="Convolution" version="opset1">
			<data strides="1, 1" dilations="1, 1" pads_begin="0, 0" pads_end="0, 0" auto_pad="explicit" />
			<input>
				<port id="0" precision="FP32">
					<dim>1</dim>
					<dim>64</dim>
					<dim>40</dim>
					<dim>40</dim>
				</port>
				<port id="1" precision="FP32">
					<dim>64</dim>
					<dim>64</dim>
					<dim>1</dim>
					<dim>1</dim>
				</port>
			</input>
			<output>
				<port id="2" precision="FP32">
					<dim>1</dim>
					<dim>64</dim>
					<dim>40</dim>
					<dim>40</dim>
				</port>
			</output>
		</layer>
		<layer id="295" name="__module.model.6.m.0.1.attn.proj.conv/aten::_convolution/Reshape" type="Const" version="opset1">
			<data element_type="f32" shape="1, 64, 1, 1" offset="1080980" size="256" />
			<output>
				<port id="0" precision="FP32">
					<dim>1</dim>
					<dim>64</dim>
					<dim>1</dim>
					<dim>1</dim>
				</port>
			</output>
		</layer>
		<layer id="296" name="__module.model.6.m.0.1.attn.proj.conv/aten::_convolution/Add" type="Add" version="opset1">
			<data auto_broadcast="numpy" />
			<input>
				<port id="0" precision="FP32">
					<dim>1</dim>
					<dim>64</dim>
					<dim>40</dim>
					<dim>40</dim>
				</port>
				<port id="1" precision="FP32">
					<dim>1</dim>
					<dim>64</dim>
					<dim>1</dim>
					<dim>1</dim>
				</port>
			</input>
			<output>
				<port id="2" precision="FP32" names="508">
					<dim>1</dim>
					<dim>64</dim>
					<dim>40</dim>
					<dim>40</dim>
				</port>
			</output>
		</layer>
		<layer id="297" name="__module.model.6.m.0.1/aten::add/Add" type="Add" version="opset1">
			<data auto_broadcast="numpy" />
			<input>
				<port id="0" precision="FP32">
					<dim>1</dim>
					<dim>64</dim>
					<dim>40</dim>
					<dim>40</dim>
				</port>
				<port id="1" precision="FP32">
					<dim>1</dim>
					<dim>64</dim>
					<dim>40</dim>
					<dim>40</dim>
				</port>
			</input>
			<output>
				<port id="2" precision="FP32" names="509,input.65">
					<dim>1</dim>
					<dim>64</dim>
					<dim>40</dim>
					<dim>40</dim>
				</port>
			</output>
		</layer>
		<layer id="298" name="self.model.6.m.0.1.mlp.0.conv.weight" type="Const" version="opset1">
			<data element_type="f32" shape="128, 64, 1, 1" offset="1081236" size="32768" />
			<output>
				<port id="0" precision="FP32" names="self.model.6.m.0.1.mlp.0.conv.weight">
					<dim>128</dim>
					<dim>64</dim>
					<dim>1</dim>
					<dim>1</dim>
				</port>
			</output>
		</layer>
		<layer id="299" name="__module.model.6.m.0.1.mlp.0.conv/aten::_convolution/Convolution" type="Convolution" version="opset1">
			<data strides="1, 1" dilations="1, 1" pads_begin="0, 0" pads_end="0, 0" auto_pad="explicit" />
			<input>
				<port id="0" precision="FP32">
					<dim>1</dim>
					<dim>64</dim>
					<dim>40</dim>
					<dim>40</dim>
				</port>
				<port id="1" precision="FP32">
					<dim>128</dim>
					<dim>64</dim>
					<dim>1</dim>
					<dim>1</dim>
				</port>
			</input>
			<output>
				<port id="2" precision="FP32">
					<dim>1</dim>
					<dim>128</dim>
					<dim>40</dim>
					<dim>40</dim>
				</port>
			</output>
		</layer>
		<layer id="300" name="__module.model.6.m.0.1.mlp.0.conv/aten::_convolution/Reshape" type="Const" version="opset1">
			<data element_type="f32" shape="1, 128, 1, 1" offset="1114004" size="512" />
			<output>
				<port id="0" precision="FP32">
					<dim>1</dim>
					<dim>128</dim>
					<dim>1</dim>
					<dim>1</dim>
				</port>
			</output>
		</layer>
		<layer id="301" name="__module.model.6.m.0.1.mlp.0.conv/aten::_convolution/Add" type="Add" version="opset1">
			<data auto_broadcast="numpy" />
			<input>
				<port id="0" precision="FP32">
					<dim>1</dim>
					<dim>128</dim>
					<dim>40</dim>
					<dim>40</dim>
				</port>
				<port id="1" precision="FP32">
					<dim>1</dim>
					<dim>128</dim>
					<dim>1</dim>
					<dim>1</dim>
				</port>
			</input>
			<output>
				<port id="2" precision="FP32" names="519_1">
					<dim>1</dim>
					<dim>128</dim>
					<dim>40</dim>
					<dim>40</dim>
				</port>
			</output>
		</layer>
		<layer id="302" name="__module.model.21.cv3.2.1.1.act/aten::silu_/Swish_14" type="Swish" version="opset4">
			<input>
				<port id="0" precision="FP32">
					<dim>1</dim>
					<dim>128</dim>
					<dim>40</dim>
					<dim>40</dim>
				</port>
			</input>
			<output>
				<port id="1" precision="FP32" names="519,input.67">
					<dim>1</dim>
					<dim>128</dim>
					<dim>40</dim>
					<dim>40</dim>
				</port>
			</output>
		</layer>
		<layer id="303" name="self.model.6.m.0.1.mlp.1.conv.weight" type="Const" version="opset1">
			<data element_type="f32" shape="64, 128, 1, 1" offset="1114516" size="32768" />
			<output>
				<port id="0" precision="FP32" names="self.model.6.m.0.1.mlp.1.conv.weight">
					<dim>64</dim>
					<dim>128</dim>
					<dim>1</dim>
					<dim>1</dim>
				</port>
			</output>
		</layer>
		<layer id="304" name="__module.model.6.m.0.1.mlp.1.conv/aten::_convolution/Convolution" type="Convolution" version="opset1">
			<data strides="1, 1" dilations="1, 1" pads_begin="0, 0" pads_end="0, 0" auto_pad="explicit" />
			<input>
				<port id="0" precision="FP32">
					<dim>1</dim>
					<dim>128</dim>
					<dim>40</dim>
					<dim>40</dim>
				</port>
				<port id="1" precision="FP32">
					<dim>64</dim>
					<dim>128</dim>
					<dim>1</dim>
					<dim>1</dim>
				</port>
			</input>
			<output>
				<port id="2" precision="FP32">
					<dim>1</dim>
					<dim>64</dim>
					<dim>40</dim>
					<dim>40</dim>
				</port>
			</output>
		</layer>
		<layer id="305" name="__module.model.6.m.0.1.mlp.1.conv/aten::_convolution/Reshape" type="Const" version="opset1">
			<data element_type="f32" shape="1, 64, 1, 1" offset="1147284" size="256" />
			<output>
				<port id="0" precision="FP32">
					<dim>1</dim>
					<dim>64</dim>
					<dim>1</dim>
					<dim>1</dim>
				</port>
			</output>
		</layer>
		<layer id="306" name="__module.model.6.m.0.1.mlp.1.conv/aten::_convolution/Add" type="Add" version="opset1">
			<data auto_broadcast="numpy" />
			<input>
				<port id="0" precision="FP32">
					<dim>1</dim>
					<dim>64</dim>
					<dim>40</dim>
					<dim>40</dim>
				</port>
				<port id="1" precision="FP32">
					<dim>1</dim>
					<dim>64</dim>
					<dim>1</dim>
					<dim>1</dim>
				</port>
			</input>
			<output>
				<port id="2" precision="FP32" names="529">
					<dim>1</dim>
					<dim>64</dim>
					<dim>40</dim>
					<dim>40</dim>
				</port>
			</output>
		</layer>
		<layer id="307" name="__module.model.6.m.0.1/aten::add/Add_1" type="Add" version="opset1">
			<data auto_broadcast="numpy" />
			<input>
				<port id="0" precision="FP32">
					<dim>1</dim>
					<dim>64</dim>
					<dim>40</dim>
					<dim>40</dim>
				</port>
				<port id="1" precision="FP32">
					<dim>1</dim>
					<dim>64</dim>
					<dim>40</dim>
					<dim>40</dim>
				</port>
			</input>
			<output>
				<port id="2" precision="FP32" names="530,x.23">
					<dim>1</dim>
					<dim>64</dim>
					<dim>40</dim>
					<dim>40</dim>
				</port>
			</output>
		</layer>
		<layer id="308" name="self.model.6.m.1.0.attn.v.conv.weight" type="Const" version="opset1">
			<data element_type="f32" shape="64, 64, 1, 1" offset="1147540" size="16384" />
			<output>
				<port id="0" precision="FP32" names="self.model.6.m.1.0.attn.v.conv.weight">
					<dim>64</dim>
					<dim>64</dim>
					<dim>1</dim>
					<dim>1</dim>
				</port>
			</output>
		</layer>
		<layer id="309" name="__module.model.6.m.1.0.attn.v.conv/aten::_convolution/Convolution" type="Convolution" version="opset1">
			<data strides="1, 1" dilations="1, 1" pads_begin="0, 0" pads_end="0, 0" auto_pad="explicit" />
			<input>
				<port id="0" precision="FP32">
					<dim>1</dim>
					<dim>64</dim>
					<dim>40</dim>
					<dim>40</dim>
				</port>
				<port id="1" precision="FP32">
					<dim>64</dim>
					<dim>64</dim>
					<dim>1</dim>
					<dim>1</dim>
				</port>
			</input>
			<output>
				<port id="2" precision="FP32">
					<dim>1</dim>
					<dim>64</dim>
					<dim>40</dim>
					<dim>40</dim>
				</port>
			</output>
		</layer>
		<layer id="310" name="__module.model.6.m.1.0.attn.v.conv/aten::_convolution/Reshape" type="Const" version="opset1">
			<data element_type="f32" shape="1, 64, 1, 1" offset="1163924" size="256" />
			<output>
				<port id="0" precision="FP32">
					<dim>1</dim>
					<dim>64</dim>
					<dim>1</dim>
					<dim>1</dim>
				</port>
			</output>
		</layer>
		<layer id="311" name="__module.model.6.m.1.0.attn.v.conv/aten::_convolution/Add" type="Add" version="opset1">
			<data auto_broadcast="numpy" />
			<input>
				<port id="0" precision="FP32">
					<dim>1</dim>
					<dim>64</dim>
					<dim>40</dim>
					<dim>40</dim>
				</port>
				<port id="1" precision="FP32">
					<dim>1</dim>
					<dim>64</dim>
					<dim>1</dim>
					<dim>1</dim>
				</port>
			</input>
			<output>
				<port id="2" precision="FP32" names="565,input.71">
					<dim>1</dim>
					<dim>64</dim>
					<dim>40</dim>
					<dim>40</dim>
				</port>
			</output>
		</layer>
		<layer id="312" name="Constant_42777" type="Const" version="opset1">
			<data element_type="i64" shape="3" offset="884936" size="24" />
			<output>
				<port id="0" precision="I64">
					<dim>3</dim>
				</port>
			</output>
		</layer>
		<layer id="313" name="__module.model.6.m.1.0.attn/aten::flatten/Reshape" type="Reshape" version="opset1">
			<data special_zero="true" />
			<input>
				<port id="0" precision="FP32">
					<dim>1</dim>
					<dim>64</dim>
					<dim>40</dim>
					<dim>40</dim>
				</port>
				<port id="1" precision="I64">
					<dim>3</dim>
				</port>
			</input>
			<output>
				<port id="2" precision="FP32" names="574">
					<dim>1</dim>
					<dim>64</dim>
					<dim>1600</dim>
				</port>
			</output>
		</layer>
		<layer id="314" name="__module.model.6.m.1.0.attn/aten::transpose/Constant" type="Const" version="opset1">
			<data element_type="i32" shape="3" offset="884960" size="12" />
			<output>
				<port id="0" precision="I32">
					<dim>3</dim>
				</port>
			</output>
		</layer>
		<layer id="315" name="__module.model.6.m.1.0.attn/aten::transpose/Transpose" type="Transpose" version="opset1">
			<input>
				<port id="0" precision="FP32">
					<dim>1</dim>
					<dim>64</dim>
					<dim>1600</dim>
				</port>
				<port id="1" precision="I32">
					<dim>3</dim>
				</port>
			</input>
			<output>
				<port id="2" precision="FP32" names="575,v.13">
					<dim>1</dim>
					<dim>1600</dim>
					<dim>64</dim>
				</port>
			</output>
		</layer>
		<layer id="316" name="__module.model.6.m.1.0.attn/aten::reshape/Reshape" type="Reshape" version="opset1">
			<data special_zero="false" />
			<input>
				<port id="0" precision="FP32">
					<dim>1</dim>
					<dim>1600</dim>
					<dim>64</dim>
				</port>
				<port id="1" precision="I64">
					<dim>3</dim>
				</port>
			</input>
			<output>
				<port id="2" precision="FP32" names="589,v.15">
					<dim>4</dim>
					<dim>400</dim>
					<dim>64</dim>
				</port>
			</output>
		</layer>
		<layer id="317" name="__module.model.6.m.1.0.attn/aten::transpose/Constant_1" type="Const" version="opset1">
			<data element_type="i32" shape="3" offset="884960" size="12" />
			<output>
				<port id="0" precision="I32">
					<dim>3</dim>
				</port>
			</output>
		</layer>
		<layer id="318" name="__module.model.6.m.1.0.attn/aten::transpose/Transpose_1" type="Transpose" version="opset1">
			<input>
				<port id="0" precision="FP32">
					<dim>4</dim>
					<dim>400</dim>
					<dim>64</dim>
				</port>
				<port id="1" precision="I32">
					<dim>3</dim>
				</port>
			</input>
			<output>
				<port id="2" precision="FP32" names="604">
					<dim>4</dim>
					<dim>64</dim>
					<dim>400</dim>
				</port>
			</output>
		</layer>
		<layer id="319" name="self.model.6.m.1.0.attn.qk.conv.weight" type="Const" version="opset1">
			<data element_type="f32" shape="128, 64, 1, 1" offset="1164180" size="32768" />
			<output>
				<port id="0" precision="FP32" names="self.model.6.m.1.0.attn.qk.conv.weight">
					<dim>128</dim>
					<dim>64</dim>
					<dim>1</dim>
					<dim>1</dim>
				</port>
			</output>
		</layer>
		<layer id="320" name="__module.model.6.m.1.0.attn.qk.conv/aten::_convolution/Convolution" type="Convolution" version="opset1">
			<data strides="1, 1" dilations="1, 1" pads_begin="0, 0" pads_end="0, 0" auto_pad="explicit" />
			<input>
				<port id="0" precision="FP32">
					<dim>1</dim>
					<dim>64</dim>
					<dim>40</dim>
					<dim>40</dim>
				</port>
				<port id="1" precision="FP32">
					<dim>128</dim>
					<dim>64</dim>
					<dim>1</dim>
					<dim>1</dim>
				</port>
			</input>
			<output>
				<port id="2" precision="FP32">
					<dim>1</dim>
					<dim>128</dim>
					<dim>40</dim>
					<dim>40</dim>
				</port>
			</output>
		</layer>
		<layer id="321" name="__module.model.6.m.1.0.attn.qk.conv/aten::_convolution/Reshape" type="Const" version="opset1">
			<data element_type="f32" shape="1, 128, 1, 1" offset="1196948" size="512" />
			<output>
				<port id="0" precision="FP32">
					<dim>1</dim>
					<dim>128</dim>
					<dim>1</dim>
					<dim>1</dim>
				</port>
			</output>
		</layer>
		<layer id="322" name="__module.model.6.m.1.0.attn.qk.conv/aten::_convolution/Add" type="Add" version="opset1">
			<data auto_broadcast="numpy" />
			<input>
				<port id="0" precision="FP32">
					<dim>1</dim>
					<dim>128</dim>
					<dim>40</dim>
					<dim>40</dim>
				</port>
				<port id="1" precision="FP32">
					<dim>1</dim>
					<dim>128</dim>
					<dim>1</dim>
					<dim>1</dim>
				</port>
			</input>
			<output>
				<port id="2" precision="FP32" names="555">
					<dim>1</dim>
					<dim>128</dim>
					<dim>40</dim>
					<dim>40</dim>
				</port>
			</output>
		</layer>
		<layer id="323" name="Constant_42778" type="Const" version="opset1">
			<data element_type="i64" shape="3" offset="918296" size="24" />
			<output>
				<port id="0" precision="I64">
					<dim>3</dim>
				</port>
			</output>
		</layer>
		<layer id="324" name="__module.model.6.m.1.0.attn/aten::flatten/Reshape_1" type="Reshape" version="opset1">
			<data special_zero="true" />
			<input>
				<port id="0" precision="FP32">
					<dim>1</dim>
					<dim>128</dim>
					<dim>40</dim>
					<dim>40</dim>
				</port>
				<port id="1" precision="I64">
					<dim>3</dim>
				</port>
			</input>
			<output>
				<port id="2" precision="FP32" names="556">
					<dim>1</dim>
					<dim>128</dim>
					<dim>1600</dim>
				</port>
			</output>
		</layer>
		<layer id="325" name="__module.model.6.m.1.0.attn/aten::transpose/Constant_2" type="Const" version="opset1">
			<data element_type="i32" shape="3" offset="884960" size="12" />
			<output>
				<port id="0" precision="I32">
					<dim>3</dim>
				</port>
			</output>
		</layer>
		<layer id="326" name="__module.model.6.m.1.0.attn/aten::transpose/Transpose_2" type="Transpose" version="opset1">
			<input>
				<port id="0" precision="FP32">
					<dim>1</dim>
					<dim>128</dim>
					<dim>1600</dim>
				</port>
				<port id="1" precision="I32">
					<dim>3</dim>
				</port>
			</input>
			<output>
				<port id="2" precision="FP32" names="557,qk.9">
					<dim>1</dim>
					<dim>1600</dim>
					<dim>128</dim>
				</port>
			</output>
		</layer>
		<layer id="327" name="__module.model.6.m.1.0.attn/aten::reshape/Reshape_1" type="Reshape" version="opset1">
			<data special_zero="false" />
			<input>
				<port id="0" precision="FP32">
					<dim>1</dim>
					<dim>1600</dim>
					<dim>128</dim>
				</port>
				<port id="1" precision="I64">
					<dim>3</dim>
				</port>
			</input>
			<output>
				<port id="2" precision="FP32" names="583,qk.11">
					<dim>4</dim>
					<dim>400</dim>
					<dim>128</dim>
				</port>
			</output>
		</layer>
		<layer id="328" name="ShapeOf_42562" type="ShapeOf" version="opset3">
			<data output_type="i64" />
			<input>
				<port id="0" precision="FP32">
					<dim>4</dim>
					<dim>400</dim>
					<dim>128</dim>
				</port>
			</input>
			<output>
				<port id="1" precision="I64">
					<dim>3</dim>
				</port>
			</output>
		</layer>
		<layer id="329" name="Constant_42563" type="Const" version="opset1">
			<data element_type="i64" shape="" offset="918252" size="8" />
			<output>
				<port id="0" precision="I64" />
			</output>
		</layer>
		<layer id="330" name="Constant_42564" type="Const" version="opset1">
			<data element_type="i64" shape="" offset="918252" size="8" />
			<output>
				<port id="0" precision="I64" />
			</output>
		</layer>
		<layer id="331" name="Gather_42565" type="Gather" version="opset8">
			<data batch_dims="0" />
			<input>
				<port id="0" precision="I64">
					<dim>3</dim>
				</port>
				<port id="1" precision="I64" />
				<port id="2" precision="I64" />
			</input>
			<output>
				<port id="3" precision="I64" names="590" />
			</output>
		</layer>
		<layer id="332" name="Constant_42566" type="Const" version="opset1">
			<data element_type="i64" shape="1" offset="82560" size="8" />
			<output>
				<port id="0" precision="I64">
					<dim>1</dim>
				</port>
			</output>
		</layer>
		<layer id="333" name="Reshape_42567" type="Reshape" version="opset1">
			<data special_zero="false" />
			<input>
				<port id="0" precision="I64" />
				<port id="1" precision="I64">
					<dim>1</dim>
				</port>
			</input>
			<output>
				<port id="2" precision="I64">
					<dim>1</dim>
				</port>
			</output>
		</layer>
		<layer id="334" name="Constant_6667" type="Const" version="opset1">
			<data element_type="i64" shape="1" offset="918268" size="8" />
			<output>
				<port id="0" precision="I64">
					<dim>1</dim>
				</port>
			</output>
		</layer>
		<layer id="335" name="Constant_6668" type="Const" version="opset1">
			<data element_type="i64" shape="1" offset="918328" size="8" />
			<output>
				<port id="0" precision="I64">
					<dim>1</dim>
				</port>
			</output>
		</layer>
		<layer id="336" name="Constant_42569" type="Const" version="opset1">
			<data element_type="i64" shape="1" offset="82560" size="8" />
			<output>
				<port id="0" precision="I64">
					<dim>1</dim>
				</port>
			</output>
		</layer>
		<layer id="337" name="Constant_42570" type="Const" version="opset1">
			<data element_type="i64" shape="" offset="918252" size="8" />
			<output>
				<port id="0" precision="I64" />
			</output>
		</layer>
		<layer id="338" name="Gather_42571" type="Gather" version="opset8">
			<data batch_dims="0" />
			<input>
				<port id="0" precision="I64">
					<dim>3</dim>
				</port>
				<port id="1" precision="I64">
					<dim>1</dim>
				</port>
				<port id="2" precision="I64" />
			</input>
			<output>
				<port id="3" precision="I64" names="592">
					<dim>1</dim>
				</port>
			</output>
		</layer>
		<layer id="339" name="__module.model.6.m.1.0.attn/prim::ListConstruct_2" type="Concat" version="opset1">
			<data axis="0" />
			<input>
				<port id="0" precision="I64">
					<dim>1</dim>
				</port>
				<port id="1" precision="I64">
					<dim>1</dim>
				</port>
				<port id="2" precision="I64">
					<dim>1</dim>
				</port>
				<port id="3" precision="I64">
					<dim>1</dim>
				</port>
			</input>
			<output>
				<port id="4" precision="I64">
					<dim>4</dim>
				</port>
			</output>
		</layer>
		<layer id="340" name="__module.model.6.m.1.0.attn/aten::view/Reshape" type="Reshape" version="opset1">
			<data special_zero="false" />
			<input>
				<port id="0" precision="FP32">
					<dim>4</dim>
					<dim>64</dim>
					<dim>400</dim>
				</port>
				<port id="1" precision="I64">
					<dim>4</dim>
				</port>
			</input>
			<output>
				<port id="2" precision="FP32" names="606,v.17">
					<dim>4</dim>
					<dim>2</dim>
					<dim>32</dim>
					<dim>400</dim>
				</port>
			</output>
		</layer>
		<layer id="341" name="__module.model.6.m.1.0.attn/prim::ListUnpack" type="VariadicSplit" version="opset1">
			<input>
				<port id="0" precision="FP32">
					<dim>4</dim>
					<dim>400</dim>
					<dim>128</dim>
				</port>
				<port id="1" precision="I64" />
				<port id="2" precision="I64">
					<dim>2</dim>
				</port>
			</input>
			<output>
				<port id="3" precision="FP32" names="596,q.9">
					<dim>4</dim>
					<dim>400</dim>
					<dim>64</dim>
				</port>
				<port id="4" precision="FP32" names="597,k.9">
					<dim>4</dim>
					<dim>400</dim>
					<dim>64</dim>
				</port>
			</output>
		</layer>
		<layer id="342" name="__module.model.6.m.1.0.attn/aten::transpose/Constant_3" type="Const" version="opset1">
			<data element_type="i32" shape="3" offset="884960" size="12" />
			<output>
				<port id="0" precision="I32">
					<dim>3</dim>
				</port>
			</output>
		</layer>
		<layer id="343" name="__module.model.6.m.1.0.attn/aten::transpose/Transpose_3" type="Transpose" version="opset1">
			<input>
				<port id="0" precision="FP32">
					<dim>4</dim>
					<dim>400</dim>
					<dim>64</dim>
				</port>
				<port id="1" precision="I32">
					<dim>3</dim>
				</port>
			</input>
			<output>
				<port id="2" precision="FP32" names="598">
					<dim>4</dim>
					<dim>64</dim>
					<dim>400</dim>
				</port>
			</output>
		</layer>
		<layer id="344" name="Constant_42779" type="Const" version="opset1">
			<data element_type="i64" shape="4" offset="918352" size="32" />
			<output>
				<port id="0" precision="I64">
					<dim>4</dim>
				</port>
			</output>
		</layer>
		<layer id="345" name="__module.model.6.m.1.0.attn/aten::view/Reshape_1" type="Reshape" version="opset1">
			<data special_zero="true" />
			<input>
				<port id="0" precision="FP32">
					<dim>4</dim>
					<dim>64</dim>
					<dim>400</dim>
				</port>
				<port id="1" precision="I64">
					<dim>4</dim>
				</port>
			</input>
			<output>
				<port id="2" precision="FP32" names="600,q.11">
					<dim>4</dim>
					<dim>2</dim>
					<dim>32</dim>
					<dim>400</dim>
				</port>
			</output>
		</layer>
		<layer id="346" name="__module.model.6.m.1.0.attn/aten::transpose/Constant_5" type="Const" version="opset1">
			<data element_type="i32" shape="3" offset="884960" size="12" />
			<output>
				<port id="0" precision="I32">
					<dim>3</dim>
				</port>
			</output>
		</layer>
		<layer id="347" name="__module.model.6.m.1.0.attn/aten::transpose/Transpose_5" type="Transpose" version="opset1">
			<input>
				<port id="0" precision="FP32">
					<dim>4</dim>
					<dim>400</dim>
					<dim>64</dim>
				</port>
				<port id="1" precision="I32">
					<dim>3</dim>
				</port>
			</input>
			<output>
				<port id="2" precision="FP32" names="601">
					<dim>4</dim>
					<dim>64</dim>
					<dim>400</dim>
				</port>
			</output>
		</layer>
		<layer id="348" name="Constant_42780" type="Const" version="opset1">
			<data element_type="i64" shape="4" offset="918352" size="32" />
			<output>
				<port id="0" precision="I64">
					<dim>4</dim>
				</port>
			</output>
		</layer>
		<layer id="349" name="__module.model.6.m.1.0.attn/aten::view/Reshape_2" type="Reshape" version="opset1">
			<data special_zero="true" />
			<input>
				<port id="0" precision="FP32">
					<dim>4</dim>
					<dim>64</dim>
					<dim>400</dim>
				</port>
				<port id="1" precision="I64">
					<dim>4</dim>
				</port>
			</input>
			<output>
				<port id="2" precision="FP32" names="603,k.11">
					<dim>4</dim>
					<dim>2</dim>
					<dim>32</dim>
					<dim>400</dim>
				</port>
			</output>
		</layer>
		<layer id="350" name="Constant_40380" type="Const" version="opset1">
			<data element_type="f32" shape="1, 1, 1, 1" offset="918384" size="4" />
			<output>
				<port id="0" precision="FP32">
					<dim>1</dim>
					<dim>1</dim>
					<dim>1</dim>
					<dim>1</dim>
				</port>
			</output>
		</layer>
		<layer id="351" name="Multiply_40108" type="Multiply" version="opset1">
			<data auto_broadcast="numpy" />
			<input>
				<port id="0" precision="FP32">
					<dim>4</dim>
					<dim>2</dim>
					<dim>32</dim>
					<dim>400</dim>
				</port>
				<port id="1" precision="FP32">
					<dim>1</dim>
					<dim>1</dim>
					<dim>1</dim>
					<dim>1</dim>
				</port>
			</input>
			<output>
				<port id="2" precision="FP32">
					<dim>4</dim>
					<dim>2</dim>
					<dim>32</dim>
					<dim>400</dim>
				</port>
			</output>
		</layer>
		<layer id="352" name="__module.model.6.m.1.0.attn/aten::mul/Multiply_3" type="MatMul" version="opset1">
			<data transpose_a="true" transpose_b="false" />
			<input>
				<port id="0" precision="FP32">
					<dim>4</dim>
					<dim>2</dim>
					<dim>32</dim>
					<dim>400</dim>
				</port>
				<port id="1" precision="FP32">
					<dim>4</dim>
					<dim>2</dim>
					<dim>32</dim>
					<dim>400</dim>
				</port>
			</input>
			<output>
				<port id="2" precision="FP32" names="609,attn.9">
					<dim>4</dim>
					<dim>2</dim>
					<dim>400</dim>
					<dim>400</dim>
				</port>
			</output>
		</layer>
		<layer id="353" name="__module.model.6.m.1.0.attn/aten::div/Divide" type="SoftMax" version="opset1">
			<data axis="3" />
			<input>
				<port id="0" precision="FP32">
					<dim>4</dim>
					<dim>2</dim>
					<dim>400</dim>
					<dim>400</dim>
				</port>
			</input>
			<output>
				<port id="1" precision="FP32" names="616,attn.11">
					<dim>4</dim>
					<dim>2</dim>
					<dim>400</dim>
					<dim>400</dim>
				</port>
			</output>
		</layer>
		<layer id="354" name="__module.model.6.m.1.0.attn/aten::matmul/MatMul_1" type="MatMul" version="opset1">
			<data transpose_a="false" transpose_b="true" />
			<input>
				<port id="0" precision="FP32">
					<dim>4</dim>
					<dim>2</dim>
					<dim>32</dim>
					<dim>400</dim>
				</port>
				<port id="1" precision="FP32">
					<dim>4</dim>
					<dim>2</dim>
					<dim>400</dim>
					<dim>400</dim>
				</port>
			</input>
			<output>
				<port id="2" precision="FP32" names="618,x.25">
					<dim>4</dim>
					<dim>2</dim>
					<dim>32</dim>
					<dim>400</dim>
				</port>
			</output>
		</layer>
		<layer id="355" name="Constant_6856" type="Const" version="opset1">
			<data element_type="i64" shape="4" offset="918388" size="32" />
			<output>
				<port id="0" precision="I64" names="619">
					<dim>4</dim>
				</port>
			</output>
		</layer>
		<layer id="356" name="__module.model.6.m.1.0.attn/aten::permute/Transpose" type="Transpose" version="opset1">
			<input>
				<port id="0" precision="FP32">
					<dim>4</dim>
					<dim>2</dim>
					<dim>32</dim>
					<dim>400</dim>
				</port>
				<port id="1" precision="I64">
					<dim>4</dim>
				</port>
			</input>
			<output>
				<port id="2" precision="FP32" names="620,x.27">
					<dim>4</dim>
					<dim>400</dim>
					<dim>2</dim>
					<dim>32</dim>
				</port>
			</output>
		</layer>
		<layer id="357" name="__module.model.6.m.1.0.attn/aten::floor_divide/Divide_2" type="Divide" version="opset1">
			<data auto_broadcast="numpy" m_pythondiv="true" />
			<input>
				<port id="0" precision="I64" />
				<port id="1" precision="I64" />
			</input>
			<output>
				<port id="2" precision="I64" />
			</output>
		</layer>
		<layer id="358" name="__module.model.6.m.1.0.attn/aten::floor_divide/Floor_2" type="Floor" version="opset1">
			<input>
				<port id="0" precision="I64" />
			</input>
			<output>
				<port id="1" precision="I64" names="621,622" />
			</output>
		</layer>
		<layer id="359" name="Constant_6874" type="Const" version="opset1">
			<data element_type="i32" shape="" offset="918284" size="4" />
			<output>
				<port id="0" precision="I32" />
			</output>
		</layer>
		<layer id="360" name="Unsqueeze_6877" type="Unsqueeze" version="opset1">
			<input>
				<port id="0" precision="I64" />
				<port id="1" precision="I32" />
			</input>
			<output>
				<port id="2" precision="I64">
					<dim>1</dim>
				</port>
			</output>
		</layer>
		<layer id="361" name="Constant_35653" type="Const" version="opset1">
			<data element_type="i64" shape="1" offset="918260" size="8" />
			<output>
				<port id="0" precision="I64">
					<dim>1</dim>
				</port>
			</output>
		</layer>
		<layer id="362" name="__module.model.6.m.1.0.attn/aten::mul/Multiply_4" type="Multiply" version="opset1">
			<data auto_broadcast="numpy" />
			<input>
				<port id="0" precision="I64">
					<dim>1</dim>
				</port>
				<port id="1" precision="I64">
					<dim>1</dim>
				</port>
			</input>
			<output>
				<port id="2" precision="I64" names="623,624">
					<dim>1</dim>
				</port>
			</output>
		</layer>
		<layer id="363" name="Constant_6980" type="Const" version="opset1">
			<data element_type="i64" shape="1" offset="918288" size="8" />
			<output>
				<port id="0" precision="I64">
					<dim>1</dim>
				</port>
			</output>
		</layer>
		<layer id="364" name="__module.model.6.m.1.0.attn/prim::ListConstruct_5" type="Concat" version="opset1">
			<data axis="0" />
			<input>
				<port id="0" precision="I64">
					<dim>1</dim>
				</port>
				<port id="1" precision="I64">
					<dim>1</dim>
				</port>
				<port id="2" precision="I64">
					<dim>1</dim>
				</port>
			</input>
			<output>
				<port id="3" precision="I64">
					<dim>3</dim>
				</port>
			</output>
		</layer>
		<layer id="365" name="__module.model.6.m.1.0.attn/aten::reshape/Reshape_2" type="Reshape" version="opset1">
			<data special_zero="false" />
			<input>
				<port id="0" precision="FP32">
					<dim>4</dim>
					<dim>400</dim>
					<dim>2</dim>
					<dim>32</dim>
				</port>
				<port id="1" precision="I64">
					<dim>3</dim>
				</port>
			</input>
			<output>
				<port id="2" precision="FP32" names="626,x.29">
					<dim>1</dim>
					<dim>1600</dim>
					<dim>64</dim>
				</port>
			</output>
		</layer>
		<layer id="366" name="ShapeOf_42576" type="ShapeOf" version="opset3">
			<data output_type="i64" />
			<input>
				<port id="0" precision="FP32">
					<dim>1</dim>
					<dim>1600</dim>
					<dim>64</dim>
				</port>
			</input>
			<output>
				<port id="1" precision="I64">
					<dim>3</dim>
				</port>
			</output>
		</layer>
		<layer id="367" name="Constant_42577" type="Const" version="opset1">
			<data element_type="i64" shape="1" offset="918252" size="8" />
			<output>
				<port id="0" precision="I64">
					<dim>1</dim>
				</port>
			</output>
		</layer>
		<layer id="368" name="Constant_42578" type="Const" version="opset1">
			<data element_type="i64" shape="" offset="918252" size="8" />
			<output>
				<port id="0" precision="I64" />
			</output>
		</layer>
		<layer id="369" name="Gather_42579" type="Gather" version="opset8">
			<data batch_dims="0" />
			<input>
				<port id="0" precision="I64">
					<dim>3</dim>
				</port>
				<port id="1" precision="I64">
					<dim>1</dim>
				</port>
				<port id="2" precision="I64" />
			</input>
			<output>
				<port id="3" precision="I64" names="627">
					<dim>1</dim>
				</port>
			</output>
		</layer>
		<layer id="370" name="Constant_7069" type="Const" version="opset1">
			<data element_type="i64" shape="1" offset="918288" size="8" />
			<output>
				<port id="0" precision="I64">
					<dim>1</dim>
				</port>
			</output>
		</layer>
		<layer id="371" name="__module.model.6.m.1.0.attn/prim::ListConstruct_6" type="Concat" version="opset1">
			<data axis="0" />
			<input>
				<port id="0" precision="I64">
					<dim>1</dim>
				</port>
				<port id="1" precision="I64">
					<dim>1</dim>
				</port>
				<port id="2" precision="I64">
					<dim>1</dim>
				</port>
				<port id="3" precision="I64">
					<dim>1</dim>
				</port>
			</input>
			<output>
				<port id="4" precision="I64">
					<dim>4</dim>
				</port>
			</output>
		</layer>
		<layer id="372" name="__module.model.6.m.1.0.attn/aten::reshape/Reshape_3" type="Reshape" version="opset1">
			<data special_zero="false" />
			<input>
				<port id="0" precision="FP32">
					<dim>1</dim>
					<dim>1600</dim>
					<dim>64</dim>
				</port>
				<port id="1" precision="I64">
					<dim>4</dim>
				</port>
			</input>
			<output>
				<port id="2" precision="FP32" names="629">
					<dim>1</dim>
					<dim>40</dim>
					<dim>40</dim>
					<dim>64</dim>
				</port>
			</output>
		</layer>
		<layer id="373" name="Constant_7078" type="Const" version="opset1">
			<data element_type="i64" shape="4" offset="918388" size="32" />
			<output>
				<port id="0" precision="I64" names="630">
					<dim>4</dim>
				</port>
			</output>
		</layer>
		<layer id="374" name="__module.model.6.m.1.0.attn/aten::permute/Transpose_1" type="Transpose" version="opset1">
			<input>
				<port id="0" precision="FP32">
					<dim>1</dim>
					<dim>40</dim>
					<dim>40</dim>
					<dim>64</dim>
				</port>
				<port id="1" precision="I64">
					<dim>4</dim>
				</port>
			</input>
			<output>
				<port id="2" precision="FP32" names="631,x.31">
					<dim>1</dim>
					<dim>64</dim>
					<dim>40</dim>
					<dim>40</dim>
				</port>
			</output>
		</layer>
		<layer id="375" name="__module.model.6.m.1.0.attn.pe.conv/aten::_convolution/Reshape" type="Const" version="opset1">
			<data element_type="f32" shape="64, 1, 1, 5, 5" offset="1197460" size="6400" />
			<output>
				<port id="0" precision="FP32">
					<dim>64</dim>
					<dim>1</dim>
					<dim>1</dim>
					<dim>5</dim>
					<dim>5</dim>
				</port>
			</output>
		</layer>
		<layer id="376" name="__module.model.6.m.1.0.attn.pe.conv/aten::_convolution/GroupConvolution" type="GroupConvolution" version="opset1">
			<data strides="1, 1" pads_begin="2, 2" pads_end="2, 2" dilations="1, 1" auto_pad="explicit" />
			<input>
				<port id="0" precision="FP32">
					<dim>1</dim>
					<dim>64</dim>
					<dim>40</dim>
					<dim>40</dim>
				</port>
				<port id="1" precision="FP32">
					<dim>64</dim>
					<dim>1</dim>
					<dim>1</dim>
					<dim>5</dim>
					<dim>5</dim>
				</port>
			</input>
			<output>
…
		<edge from-layer="511" from-port="0" to-layer="512" to-port="1" />
		<edge from-layer="512" from-port="2" to-layer="513" to-port="0" />
		<edge from-layer="513" from-port="1" to-layer="775" to-port="1" />
		<edge from-layer="513" from-port="1" to-layer="515" to-port="0" />
		<edge from-layer="514" from-port="0" to-layer="515" to-port="1" />
		<edge from-layer="515" from-port="2" to-layer="517" to-port="0" />
		<edge from-layer="516" from-port="0" to-layer="517" to-port="1" />
		<edge from-layer="517" from-port="2" to-layer="518" to-port="0" />
		<edge from-layer="518" from-port="1" to-layer="520" to-port="0" />
		<edge from-layer="519" from-port="0" to-layer="520" to-port="1" />
		<edge from-layer="520" from-port="2" to-layer="522" to-port="0" />
		<edge from-layer="521" from-port="0" to-layer="522" to-port="1" />
		<edge from-layer="522" from-port="2" to-layer="523" to-port="0" />
		<edge from-layer="523" from-port="1" to-layer="578" to-port="0" />
		<edge from-layer="523" from-port="1" to-layer="541" to-port="0" />
		<edge from-layer="523" from-port="1" to-layer="766" to-port="0" />
		<edge from-layer="523" from-port="1" to-layer="533" to-port="0" />
		<edge from-layer="523" from-port="1" to-layer="525" to-port="0" />
		<edge from-layer="524" from-port="0" to-layer="525" to-port="1" />
		<edge from-layer="525" from-port="2" to-layer="527" to-port="0" />
		<edge from-layer="526" from-port="0" to-layer="527" to-port="1" />
		<edge from-layer="527" from-port="2" to-layer="570" to-port="0" />
		<edge from-layer="527" from-port="2" to-layer="529" to-port="0" />
		<edge from-layer="528" from-port="0" to-layer="529" to-port="1" />
		<edge from-layer="529" from-port="2" to-layer="531" to-port="0" />
		<edge from-layer="530" from-port="0" to-layer="531" to-port="1" />
		<edge from-layer="531" from-port="2" to-layer="558" to-port="0" />
		<edge from-layer="532" from-port="0" to-layer="533" to-port="1" />
		<edge from-layer="533" from-port="2" to-layer="535" to-port="0" />
		<edge from-layer="534" from-port="0" to-layer="535" to-port="1" />
		<edge from-layer="535" from-port="2" to-layer="537" to-port="0" />
		<edge from-layer="536" from-port="0" to-layer="537" to-port="1" />
		<edge from-layer="537" from-port="2" to-layer="539" to-port="0" />
		<edge from-layer="538" from-port="0" to-layer="539" to-port="1" />
		<edge from-layer="539" from-port="2" to-layer="545" to-port="0" />
		<edge from-layer="540" from-port="0" to-layer="666" to-port="1" />
		<edge from-layer="540" from-port="0" to-layer="721" to-port="1" />
		<edge from-layer="540" from-port="0" to-layer="605" to-port="1" />
		<edge from-layer="540" from-port="0" to-layer="545" to-port="1" />
		<edge from-layer="541" from-port="1" to-layer="544" to-port="0" />
		<edge from-layer="541" from-port="1" to-layer="563" to-port="0" />
		<edge from-layer="542" from-port="0" to-layer="544" to-port="1" />
		<edge from-layer="543" from-port="0" to-layer="544" to-port="2" />
		<edge from-layer="544" from-port="3" to-layer="605" to-port="2" />
		<edge from-layer="544" from-port="3" to-layer="666" to-port="2" />
		<edge from-layer="544" from-port="3" to-layer="721" to-port="2" />
		<edge from-layer="544" from-port="3" to-layer="545" to-port="2" />
		<edge from-layer="545" from-port="4" to-layer="551" to-port="0" />
		<edge from-layer="545" from-port="3" to-layer="547" to-port="0" />
		<edge from-layer="546" from-port="0" to-layer="547" to-port="1" />
		<edge from-layer="547" from-port="2" to-layer="549" to-port="0" />
		<edge from-layer="548" from-port="0" to-layer="549" to-port="1" />
		<edge from-layer="549" from-port="2" to-layer="556" to-port="0" />
		<edge from-layer="550" from-port="0" to-layer="551" to-port="1" />
		<edge from-layer="551" from-port="2" to-layer="553" to-port="0" />
		<edge from-layer="552" from-port="0" to-layer="553" to-port="1" />
		<edge from-layer="553" from-port="2" to-layer="555" to-port="0" />
		<edge from-layer="554" from-port="0" to-layer="555" to-port="1" />
		<edge from-layer="555" from-port="2" to-layer="556" to-port="1" />
		<edge from-layer="556" from-port="2" to-layer="557" to-port="0" />
		<edge from-layer="557" from-port="1" to-layer="558" to-port="1" />
		<edge from-layer="558" from-port="2" to-layer="560" to-port="0" />
		<edge from-layer="559" from-port="0" to-layer="560" to-port="1" />
		<edge from-layer="560" from-port="2" to-layer="566" to-port="0" />
		<edge from-layer="561" from-port="0" to-layer="563" to-port="1" />
		<edge from-layer="562" from-port="0" to-layer="563" to-port="2" />
		<edge from-layer="563" from-port="3" to-layer="565" to-port="0" />
		<edge from-layer="564" from-port="0" to-layer="565" to-port="1" />
		<edge from-layer="565" from-port="2" to-layer="566" to-port="1" />
		<edge from-layer="565" from-port="2" to-layer="682" to-port="1" />
		<edge from-layer="566" from-port="2" to-layer="568" to-port="0" />
		<edge from-layer="567" from-port="0" to-layer="568" to-port="1" />
		<edge from-layer="568" from-port="2" to-layer="573" to-port="0" />
		<edge from-layer="569" from-port="0" to-layer="570" to-port="1" />
		<edge from-layer="570" from-port="2" to-layer="572" to-port="0" />
		<edge from-layer="571" from-port="0" to-layer="572" to-port="1" />
		<edge from-layer="572" from-port="2" to-layer="573" to-port="1" />
		<edge from-layer="573" from-port="2" to-layer="575" to-port="0" />
		<edge from-layer="574" from-port="0" to-layer="575" to-port="1" />
		<edge from-layer="575" from-port="2" to-layer="577" to-port="0" />
		<edge from-layer="576" from-port="0" to-layer="577" to-port="1" />
		<edge from-layer="577" from-port="2" to-layer="578" to-port="1" />
		<edge from-layer="578" from-port="2" to-layer="580" to-port="0" />
		<edge from-layer="578" from-port="2" to-layer="588" to-port="0" />
		<edge from-layer="579" from-port="0" to-layer="580" to-port="1" />
		<edge from-layer="580" from-port="2" to-layer="582" to-port="0" />
		<edge from-layer="581" from-port="0" to-layer="582" to-port="1" />
		<edge from-layer="582" from-port="2" to-layer="583" to-port="0" />
		<edge from-layer="583" from-port="1" to-layer="585" to-port="0" />
		<edge from-layer="584" from-port="0" to-layer="585" to-port="1" />
		<edge from-layer="585" from-port="2" to-layer="587" to-port="0" />
		<edge from-layer="586" from-port="0" to-layer="587" to-port="1" />
		<edge from-layer="587" from-port="2" to-layer="588" to-port="1" />
		<edge from-layer="588" from-port="2" to-layer="598" to-port="0" />
		<edge from-layer="588" from-port="2" to-layer="621" to-port="0" />
		<edge from-layer="588" from-port="2" to-layer="590" to-port="0" />
		<edge from-layer="588" from-port="2" to-layer="639" to-port="0" />
		<edge from-layer="589" from-port="0" to-layer="590" to-port="1" />
		<edge from-layer="590" from-port="2" to-layer="592" to-port="0" />
		<edge from-layer="591" from-port="0" to-layer="592" to-port="1" />
		<edge from-layer="592" from-port="2" to-layer="594" to-port="0" />
		<edge from-layer="592" from-port="2" to-layer="631" to-port="0" />
		<edge from-layer="593" from-port="0" to-layer="594" to-port="1" />
		<edge from-layer="594" from-port="2" to-layer="596" to-port="0" />
		<edge from-layer="595" from-port="0" to-layer="596" to-port="1" />
		<edge from-layer="596" from-port="2" to-layer="618" to-port="0" />
		<edge from-layer="597" from-port="0" to-layer="598" to-port="1" />
		<edge from-layer="598" from-port="2" to-layer="600" to-port="0" />
		<edge from-layer="599" from-port="0" to-layer="600" to-port="1" />
		<edge from-layer="600" from-port="2" to-layer="602" to-port="0" />
		<edge from-layer="601" from-port="0" to-layer="602" to-port="1" />
		<edge from-layer="602" from-port="2" to-layer="604" to-port="0" />
		<edge from-layer="603" from-port="0" to-layer="604" to-port="1" />
		<edge from-layer="604" from-port="2" to-layer="605" to-port="0" />
		<edge from-layer="605" from-port="3" to-layer="607" to-port="0" />
		<edge from-layer="605" from-port="4" to-layer="611" to-port="0" />
		<edge from-layer="606" from-port="0" to-layer="607" to-port="1" />
		<edge from-layer="607" from-port="2" to-layer="609" to-port="0" />
		<edge from-layer="608" from-port="0" to-layer="609" to-port="1" />
		<edge from-layer="609" from-port="2" to-layer="616" to-port="0" />
		<edge from-layer="610" from-port="0" to-layer="611" to-port="1" />
		<edge from-layer="611" from-port="2" to-layer="613" to-port="0" />
		<edge from-layer="612" from-port="0" to-layer="613" to-port="1" />
		<edge from-layer="613" from-port="2" to-layer="615" to-port="0" />
		<edge from-layer="614" from-port="0" to-layer="615" to-port="1" />
		<edge from-layer="615" from-port="2" to-layer="616" to-port="1" />
		<edge from-layer="616" from-port="2" to-layer="617" to-port="0" />
		<edge from-layer="617" from-port="1" to-layer="618" to-port="1" />
		<edge from-layer="618" from-port="2" to-layer="620" to-port="0" />
		<edge from-layer="619" from-port="0" to-layer="620" to-port="1" />
		<edge from-layer="620" from-port="2" to-layer="627" to-port="0" />
		<edge from-layer="621" from-port="1" to-layer="624" to-port="0" />
		<edge from-layer="622" from-port="0" to-layer="624" to-port="1" />
		<edge from-layer="623" from-port="0" to-layer="624" to-port="2" />
		<edge from-layer="624" from-port="3" to-layer="626" to-port="0" />
		<edge from-layer="625" from-port="0" to-layer="626" to-port="1" />
		<edge from-layer="626" from-port="2" to-layer="627" to-port="1" />
		<edge from-layer="627" from-port="2" to-layer="629" to-port="0" />
		<edge from-layer="628" from-port="0" to-layer="629" to-port="1" />
		<edge from-layer="629" from-port="2" to-layer="634" to-port="0" />
		<edge from-layer="630" from-port="0" to-layer="631" to-port="1" />
		<edge from-layer="631" from-port="2" to-layer="633" to-port="0" />
		<edge from-layer="632" from-port="0" to-layer="633" to-port="1" />
		<edge from-layer="633" from-port="2" to-layer="634" to-port="1" />
		<edge from-layer="634" from-port="2" to-layer="636" to-port="0" />
		<edge from-layer="635" from-port="0" to-layer="636" to-port="1" />
		<edge from-layer="636" from-port="2" to-layer="638" to-port="0" />
		<edge from-layer="637" from-port="0" to-layer="638" to-port="1" />
		<edge from-layer="638" from-port="2" to-layer="639" to-port="1" />
		<edge from-layer="639" from-port="2" to-layer="649" to-port="0" />
		<edge from-layer="639" from-port="2" to-layer="641" to-port="0" />
		<edge from-layer="640" from-port="0" to-layer="641" to-port="1" />
		<edge from-layer="641" from-port="2" to-layer="643" to-port="0" />
		<edge from-layer="642" from-port="0" to-layer="643" to-port="1" />
		<edge from-layer="643" from-port="2" to-layer="644" to-port="0" />
		<edge from-layer="644" from-port="1" to-layer="646" to-port="0" />
		<edge from-layer="645" from-port="0" to-layer="646" to-port="1" />
		<edge from-layer="646" from-port="2" to-layer="648" to-port="0" />
		<edge from-layer="647" from-port="0" to-layer="648" to-port="1" />
		<edge from-layer="648" from-port="2" to-layer="649" to-port="1" />
		<edge from-layer="649" from-port="2" to-layer="766" to-port="1" />
		<edge from-layer="649" from-port="2" to-layer="694" to-port="0" />
		<edge from-layer="649" from-port="2" to-layer="659" to-port="0" />
		<edge from-layer="649" from-port="2" to-layer="651" to-port="0" />
		<edge from-layer="650" from-port="0" to-layer="651" to-port="1" />
		<edge from-layer="651" from-port="2" to-layer="653" to-port="0" />
		<edge from-layer="652" from-port="0" to-layer="653" to-port="1" />
		<edge from-layer="653" from-port="2" to-layer="686" to-port="0" />
		<edge from-layer="653" from-port="2" to-layer="655" to-port="0" />
		<edge from-layer="654" from-port="0" to-layer="655" to-port="1" />
		<edge from-layer="655" from-port="2" to-layer="657" to-port="0" />
		<edge from-layer="656" from-port="0" to-layer="657" to-port="1" />
		<edge from-layer="657" from-port="2" to-layer="679" to-port="0" />
		<edge from-layer="658" from-port="0" to-layer="659" to-port="1" />
		<edge from-layer="659" from-port="2" to-layer="661" to-port="0" />
		<edge from-layer="660" from-port="0" to-layer="661" to-port="1" />
		<edge from-layer="661" from-port="2" to-layer="663" to-port="0" />
		<edge from-layer="662" from-port="0" to-layer="663" to-port="1" />
		<edge from-layer="663" from-port="2" to-layer="665" to-port="0" />
		<edge from-layer="664" from-port="0" to-layer="665" to-port="1" />
		<edge from-layer="665" from-port="2" to-layer="666" to-port="0" />
		<edge from-layer="666" from-port="4" to-layer="672" to-port="0" />
		<edge from-layer="666" from-port="3" to-layer="668" to-port="0" />
		<edge from-layer="667" from-port="0" to-layer="668" to-port="1" />
		<edge from-layer="668" from-port="2" to-layer="670" to-port="0" />
		<edge from-layer="669" from-port="0" to-layer="670" to-port="1" />
		<edge from-layer="670" from-port="2" to-layer="677" to-port="0" />
		<edge from-layer="671" from-port="0" to-layer="672" to-port="1" />
		<edge from-layer="672" from-port="2" to-layer="674" to-port="0" />
		<edge from-layer="673" from-port="0" to-layer="674" to-port="1" />
		<edge from-layer="674" from-port="2" to-layer="676" to-port="0" />
		<edge from-layer="675" from-port="0" to-layer="676" to-port="1" />
		<edge from-layer="676" from-port="2" to-layer="677" to-port="1" />
		<edge from-layer="677" from-port="2" to-layer="678" to-port="0" />
		<edge from-layer="678" from-port="1" to-layer="679" to-port="1" />
		<edge from-layer="679" from-port="2" to-layer="681" to-port="0" />
		<edge from-layer="680" from-port="0" to-layer="681" to-port="1" />
		<edge from-layer="681" from-port="2" to-layer="682" to-port="0" />
		<edge from-layer="682" from-port="2" to-layer="684" to-port="0" />
		<edge from-layer="683" from-port="0" to-layer="684" to-port="1" />
		<edge from-layer="684" from-port="2" to-layer="689" to-port="0" />
		<edge from-layer="685" from-port="0" to-layer="686" to-port="1" />
		<edge from-layer="686" from-port="2" to-layer="688" to-port="0" />
		<edge from-layer="687" from-port="0" to-layer="688" to-port="1" />
		<edge from-layer="688" from-port="2" to-layer="689" to-port="1" />
		<edge from-layer="689" from-port="2" to-layer="691" to-port="0" />
		<edge from-layer="690" from-port="0" to-layer="691" to-port="1" />
		<edge from-layer="691" from-port="2" to-layer="693" to-port="0" />
		<edge from-layer="692" from-port="0" to-layer="693" to-port="1" />
		<edge from-layer="693" from-port="2" to-layer="694" to-port="1" />
		<edge from-layer="694" from-port="2" to-layer="696" to-port="0" />
		<edge from-layer="694" from-port="2" to-layer="704" to-port="0" />
		<edge from-layer="695" from-port="0" to-layer="696" to-port="1" />
		<edge from-layer="696" from-port="2" to-layer="698" to-port="0" />
		<edge from-layer="697" from-port="0" to-layer="698" to-port="1" />
		<edge from-layer="698" from-port="2" to-layer="699" to-port="0" />
		<edge from-layer="699" from-port="1" to-layer="701" to-port="0" />
		<edge from-layer="700" from-port="0" to-layer="701" to-port="1" />
		<edge from-layer="701" from-port="2" to-layer="703" to-port="0" />
		<edge from-layer="702" from-port="0" to-layer="703" to-port="1" />
		<edge from-layer="703" from-port="2" to-layer="704" to-port="1" />
		<edge from-layer="704" from-port="2" to-layer="755" to-port="0" />
		<edge from-layer="704" from-port="2" to-layer="706" to-port="0" />
		<edge from-layer="704" from-port="2" to-layer="737" to-port="0" />
		<edge from-layer="704" from-port="2" to-layer="714" to-port="0" />
		<edge from-layer="705" from-port="0" to-layer="706" to-port="1" />
		<edge from-layer="706" from-port="2" to-layer="708" to-port="0" />
		<edge from-layer="707" from-port="0" to-layer="708" to-port="1" />
		<edge from-layer="708" from-port="2" to-layer="747" to-port="0" />
		<edge from-layer="708" from-port="2" to-layer="710" to-port="0" />
		<edge from-layer="709" from-port="0" to-layer="710" to-port="1" />
		<edge from-layer="710" from-port="2" to-layer="712" to-port="0" />
		<edge from-layer="711" from-port="0" to-layer="712" to-port="1" />
		<edge from-layer="712" from-port="2" to-layer="734" to-port="0" />
		<edge from-layer="713" from-port="0" to-layer="714" to-port="1" />
		<edge from-layer="714" from-port="2" to-layer="716" to-port="0" />
		<edge from-layer="715" from-port="0" to-layer="716" to-port="1" />
		<edge from-layer="716" from-port="2" to-layer="718" to-port="0" />
		<edge from-layer="717" from-port="0" to-layer="718" to-port="1" />
		<edge from-layer="718" from-port="2" to-layer="720" to-port="0" />
		<edge from-layer="719" from-port="0" to-layer="720" to-port="1" />
		<edge from-layer="720" from-port="2" to-layer="721" to-port="0" />
		<edge from-layer="721" from-port="4" to-layer="727" to-port="0" />
		<edge from-layer="721" from-port="3" to-layer="723" to-port="0" />
		<edge from-layer="722" from-port="0" to-layer="723" to-port="1" />
		<edge from-layer="723" from-port="2" to-layer="725" to-port="0" />
		<edge from-layer="724" from-port="0" to-layer="725" to-port="1" />
		<edge from-layer="725" from-port="2" to-layer="732" to-port="0" />
		<edge from-layer="726" from-port="0" to-layer="727" to-port="1" />
		<edge from-layer="727" from-port="2" to-layer="729" to-port="0" />
		<edge from-layer="728" from-port="0" to-layer="729" to-port="1" />
		<edge from-layer="729" from-port="2" to-layer="731" to-port="0" />
		<edge from-layer="730" from-port="0" to-layer="731" to-port="1" />
		<edge from-layer="731" from-port="2" to-layer="732" to-port="1" />
		<edge from-layer="732" from-port="2" to-layer="733" to-port="0" />
		<edge from-layer="733" from-port="1" to-layer="734" to-port="1" />
		<edge from-layer="734" from-port="2" to-layer="736" to-port="0" />
		<edge from-layer="735" from-port="0" to-layer="736" to-port="1" />
		<edge from-layer="736" from-port="2" to-layer="743" to-port="0" />
		<edge from-layer="737" from-port="1" to-layer="740" to-port="0" />
		<edge from-layer="738" from-port="0" to-layer="740" to-port="1" />
		<edge from-layer="739" from-port="0" to-layer="740" to-port="2" />
		<edge from-layer="740" from-port="3" to-layer="742" to-port="0" />
		<edge from-layer="741" from-port="0" to-layer="742" to-port="1" />
		<edge from-layer="742" from-port="2" to-layer="743" to-port="1" />
		<edge from-layer="743" from-port="2" to-layer="745" to-port="0" />
		<edge from-layer="744" from-port="0" to-layer="745" to-port="1" />
		<edge from-layer="745" from-port="2" to-layer="750" to-port="0" />
		<edge from-layer="746" from-port="0" to-layer="747" to-port="1" />
		<edge from-layer="747" from-port="2" to-layer="749" to-port="0" />
		<edge from-layer="748" from-port="0" to-layer="749" to-port="1" />
		<edge from-layer="749" from-port="2" to-layer="750" to-port="1" />
		<edge from-layer="750" from-port="2" to-layer="752" to-port="0" />
		<edge from-layer="751" from-port="0" to-layer="752" to-port="1" />
		<edge from-layer="752" from-port="2" to-layer="754" to-port="0" />
		<edge from-layer="753" from-port="0" to-layer="754" to-port="1" />
		<edge from-layer="754" from-port="2" to-layer="755" to-port="1" />
		<edge from-layer="755" from-port="2" to-layer="757" to-port="0" />
		<edge from-layer="755" from-port="2" to-layer="765" to-port="0" />
		<edge from-layer="756" from-port="0" to-layer="757" to-port="1" />
		<edge from-layer="757" from-port="2" to-layer="759" to-port="0" />
		<edge from-layer="758" from-port="0" to-layer="759" to-port="1" />
		<edge from-layer="759" from-port="2" to-layer="760" to-port="0" />
		<edge from-layer="760" from-port="1" to-layer="762" to-port="0" />
		<edge from-layer="761" from-port="0" to-layer="762" to-port="1" />
		<edge from-layer="762" from-port="2" to-layer="764" to-port="0" />
		<edge from-layer="763" from-port="0" to-layer="764" to-port="1" />
		<edge from-layer="764" from-port="2" to-layer="765" to-port="1" />
		<edge from-layer="765" from-port="2" to-layer="766" to-port="2" />
		<edge from-layer="766" from-port="3" to-layer="768" to-port="0" />
		<edge from-layer="767" from-port="0" to-layer="768" to-port="1" />
		<edge from-layer="768" from-port="2" to-layer="770" to-port="0" />
		<edge from-layer="769" from-port="0" to-layer="770" to-port="1" />
		<edge from-layer="770" from-port="2" to-layer="771" to-port="0" />
		<edge from-layer="771" from-port="1" to-layer="774" to-port="0" />
		<edge from-layer="771" from-port="1" to-layer="1020" to-port="1" />
		<edge from-layer="772" from-port="0" to-layer="774" to-port="1" />
		<edge from-layer="773" from-port="0" to-layer="774" to-port="2" />
		<edge from-layer="774" from-port="3" to-layer="775" to-port="0" />
		<edge from-layer="775" from-port="2" to-layer="777" to-port="0" />
		<edge from-layer="776" from-port="0" to-layer="777" to-port="1" />
		<edge from-layer="777" from-port="2" to-layer="779" to-port="0" />
		<edge from-layer="778" from-port="0" to-layer="779" to-port="1" />
		<edge from-layer="779" from-port="2" to-layer="780" to-port="0" />
		<edge from-layer="780" from-port="1" to-layer="819" to-port="0" />
		<edge from-layer="780" from-port="1" to-layer="809" to-port="0" />
		<edge from-layer="780" from-port="1" to-layer="782" to-port="0" />
		<edge from-layer="781" from-port="0" to-layer="782" to-port="1" />
		<edge from-layer="782" from-port="2" to-layer="784" to-port="0" />
		<edge from-layer="783" from-port="0" to-layer="784" to-port="1" />
		<edge from-layer="784" from-port="2" to-layer="785" to-port="0" />
		<edge from-layer="785" from-port="1" to-layer="787" to-port="0" />
		<edge from-layer="785" from-port="1" to-layer="796" to-port="0" />
		<edge from-layer="786" from-port="0" to-layer="787" to-port="1" />
		<edge from-layer="787" from-port="2" to-layer="789" to-port="0" />
		<edge from-layer="788" from-port="0" to-layer="789" to-port="1" />
		<edge from-layer="789" from-port="2" to-layer="790" to-port="0" />
		<edge from-layer="790" from-port="1" to-layer="792" to-port="0" />
		<edge from-layer="791" from-port="0" to-layer="792" to-port="1" />
		<edge from-layer="792" from-port="2" to-layer="794" to-port="0" />
		<edge from-layer="793" from-port="0" to-layer="794" to-port="1" />
		<edge from-layer="794" from-port="2" to-layer="795" to-port="0" />
		<edge from-layer="795" from-port="1" to-layer="796" to-port="1" />
		<edge from-layer="796" from-port="2" to-layer="798" to-port="0" />
		<edge from-layer="796" from-port="2" to-layer="807" to-port="0" />
		<edge from-layer="797" from-port="0" to-layer="798" to-port="1" />
		<edge from-layer="798" from-port="2" to-layer="800" to-port="0" />
		<edge from-layer="799" from-port="0" to-layer="800" to-port="1" />
		<edge from-layer="800" from-port="2" to-layer="801" to-port="0" />
		<edge from-layer="801" from-port="1" to-layer="803" to-port="0" />
		<edge from-layer="802" from-port="0" to-layer="803" to-port="1" />
		<edge from-layer="803" from-port="2" to-layer="805" to-port="0" />
		<edge from-layer="804" from-port="0" to-layer="805" to-port="1" />
		<edge from-layer="805" from-port="2" to-layer="806" to-port="0" />
		<edge from-layer="806" from-port="1" to-layer="807" to-port="1" />
		<edge from-layer="807" from-port="2" to-layer="813" to-port="0" />
		<edge from-layer="808" from-port="0" to-layer="809" to-port="1" />
		<edge from-layer="809" from-port="2" to-layer="811" to-port="0" />
		<edge from-layer="810" from-port="0" to-layer="811" to-port="1" />
		<edge from-layer="811" from-port="2" to-layer="812" to-port="0" />
		<edge from-layer="812" from-port="1" to-layer="813" to-port="1" />
		<edge from-layer="813" from-port="2" to-layer="815" to-port="0" />
		<edge from-layer="814" from-port="0" to-layer="815" to-port="1" />
		<edge from-layer="815" from-port="2" to-layer="817" to-port="0" />
		<edge from-layer="816" from-port="0" to-layer="817" to-port="1" />
		<edge from-layer="817" from-port="2" to-layer="818" to-port="0" />
		<edge from-layer="818" from-port="1" to-layer="819" to-port="1" />
		<edge from-layer="819" from-port="2" to-layer="821" to-port="0" />
		<edge from-layer="820" from-port="0" to-layer="821" to-port="1" />
		<edge from-layer="821" from-port="2" to-layer="823" to-port="0" />
		<edge from-layer="822" from-port="0" to-layer="823" to-port="1" />
		<edge from-layer="823" from-port="2" to-layer="824" to-port="0" />
		<edge from-layer="824" from-port="1" to-layer="827" to-port="0" />
		<edge from-layer="824" from-port="1" to-layer="924" to-port="1" />
		<edge from-layer="825" from-port="0" to-layer="827" to-port="1" />
		<edge from-layer="826" from-port="0" to-layer="827" to-port="2" />
		<edge from-layer="827" from-port="3" to-layer="828" to-port="0" />
		<edge from-layer="828" from-port="2" to-layer="830" to-port="0" />
		<edge from-layer="829" from-port="0" to-layer="830" to-port="1" />
		<edge from-layer="830" from-port="2" to-layer="832" to-port="0" />
		<edge from-layer="831" from-port="0" to-layer="832" to-port="1" />
		<edge from-layer="832" from-port="2" to-layer="833" to-port="0" />
		<edge from-layer="833" from-port="1" to-layer="872" to-port="0" />
		<edge from-layer="833" from-port="1" to-layer="862" to-port="0" />
		<edge from-layer="833" from-port="1" to-layer="835" to-port="0" />
		<edge from-layer="834" from-port="0" to-layer="835" to-port="1" />
		<edge from-layer="835" from-port="2" to-layer="837" to-port="0" />
		<edge from-layer="836" from-port="0" to-layer="837" to-port="1" />
		<edge from-layer="837" from-port="2" to-layer="838" to-port="0" />
		<edge from-layer="838" from-port="1" to-layer="840" to-port="0" />
		<edge from-layer="838" from-port="1" to-layer="849" to-port="0" />
		<edge from-layer="839" from-port="0" to-layer="840" to-port="1" />
		<edge from-layer="840" from-port="2" to-layer="842" to-port="0" />
		<edge from-layer="841" from-port="0" to-layer="842" to-port="1" />
		<edge from-layer="842" from-port="2" to-layer="843" to-port="0" />
		<edge from-layer="843" from-port="1" to-layer="845" to-port="0" />
		<edge from-layer="844" from-port="0" to-layer="845" to-port="1" />
		<edge from-layer="845" from-port="2" to-layer="847" to-port="0" />
		<edge from-layer="846" from-port="0" to-layer="847" to-port="1" />
		<edge from-layer="847" from-port="2" to-layer="848" to-port="0" />
		<edge from-layer="848" from-port="1" to-layer="849" to-port="1" />
		<edge from-layer="849" from-port="2" to-layer="851" to-port="0" />
		<edge from-layer="849" from-port="2" to-layer="860" to-port="0" />
		<edge from-layer="850" from-port="0" to-layer="851" to-port="1" />
		<edge from-layer="851" from-port="2" to-layer="853" to-port="0" />
		<edge from-layer="852" from-port="0" to-layer="853" to-port="1" />
		<edge from-layer="853" from-port="2" to-layer="854" to-port="0" />
		<edge from-layer="854" from-port="1" to-layer="856" to-port="0" />
		<edge from-layer="855" from-port="0" to-layer="856" to-port="1" />
		<edge from-layer="856" from-port="2" to-layer="858" to-port="0" />
		<edge from-layer="857" from-port="0" to-layer="858" to-port="1" />
		<edge from-layer="858" from-port="2" to-layer="859" to-port="0" />
		<edge from-layer="859" from-port="1" to-layer="860" to-port="1" />
		<edge from-layer="860" from-port="2" to-layer="866" to-port="0" />
		<edge from-layer="861" from-port="0" to-layer="862" to-port="1" />
		<edge from-layer="862" from-port="2" to-layer="864" to-port="0" />
		<edge from-layer="863" from-port="0" to-layer="864" to-port="1" />
		<edge from-layer="864" from-port="2" to-layer="865" to-port="0" />
		<edge from-layer="865" from-port="1" to-layer="866" to-port="1" />
		<edge from-layer="866" from-port="2" to-layer="868" to-port="0" />
		<edge from-layer="867" from-port="0" to-layer="868" to-port="1" />
		<edge from-layer="868" from-port="2" to-layer="870" to-port="0" />
		<edge from-layer="869" from-port="0" to-layer="870" to-port="1" />
		<edge from-layer="870" from-port="2" to-layer="871" to-port="0" />
		<edge from-layer="871" from-port="1" to-layer="872" to-port="1" />
		<edge from-layer="872" from-port="2" to-layer="874" to-port="0" />
		<edge from-layer="873" from-port="0" to-layer="874" to-port="1" />
		<edge from-layer="874" from-port="2" to-layer="876" to-port="0" />
		<edge from-layer="875" from-port="0" to-layer="876" to-port="1" />
		<edge from-layer="876" from-port="2" to-layer="877" to-port="0" />
		<edge from-layer="877" from-port="1" to-layer="879" to-port="0" />
		<edge from-layer="877" from-port="1" to-layer="920" to-port="0" />
		<edge from-layer="877" from-port="1" to-layer="893" to-port="0" />
		<edge from-layer="878" from-port="0" to-layer="879" to-port="1" />
		<edge from-layer="879" from-port="2" to-layer="881" to-port="0" />
		<edge from-layer="880" from-port="0" to-layer="881" to-port="1" />
		<edge from-layer="881" from-port="2" to-layer="882" to-port="0" />
		<edge from-layer="882" from-port="1" to-layer="884" to-port="0" />
		<edge from-layer="883" from-port="0" to-layer="884" to-port="1" />
		<edge from-layer="884" from-port="2" to-layer="886" to-port="0" />
		<edge from-layer="885" from-port="0" to-layer="886" to-port="1" />
		<edge from-layer="886" from-port="2" to-layer="887" to-port="0" />
		<edge from-layer="887" from-port="1" to-layer="889" to-port="0" />
		<edge from-layer="888" from-port="0" to-layer="889" to-port="1" />
		<edge from-layer="889" from-port="2" to-layer="891" to-port="0" />
		<edge from-layer="890" from-port="0" to-layer="891" to-port="1" />
		<edge from-layer="891" from-port="2" to-layer="916" to-port="0" />
		<edge from-layer="892" from-port="0" to-layer="893" to-port="1" />
		<edge from-layer="893" from-port="2" to-layer="895" to-port="0" />
		<edge from-layer="894" from-port="0" to-layer="895" to-port="1" />
		<edge from-layer="895" from-port="2" to-layer="896" to-port="0" />
		<edge from-layer="896" from-port="1" to-layer="898" to-port="0" />
		<edge from-layer="897" from-port="0" to-layer="898" to-port="1" />
		<edge from-layer="898" from-port="2" to-layer="900" to-port="0" />
		<edge from-layer="899" from-port="0" to-layer="900" to-port="1" />
		<edge from-layer="900" from-port="2" to-layer="901" to-port="0" />
		<edge from-layer="901" from-port="1" to-layer="903" to-port="0" />
		<edge from-layer="902" from-port="0" to-layer="903" to-port="1" />
		<edge from-layer="903" from-port="2" to-layer="905" to-port="0" />
		<edge from-layer="904" from-port="0" to-layer="905" to-port="1" />
		<edge from-layer="905" from-port="2" to-layer="906" to-port="0" />
		<edge from-layer="906" from-port="1" to-layer="908" to-port="0" />
		<edge from-layer="907" from-port="0" to-layer="908" to-port="1" />
		<edge from-layer="908" from-port="2" to-layer="910" to-port="0" />
		<edge from-layer="909" from-port="0" to-layer="910" to-port="1" />
		<edge from-layer="910" from-port="2" to-layer="911" to-port="0" />
		<edge from-layer="911" from-port="1" to-layer="913" to-port="0" />
		<edge from-layer="912" from-port="0" to-layer="913" to-port="1" />
		<edge from-layer="913" from-port="2" to-layer="915" to-port="0" />
		<edge from-layer="914" from-port="0" to-layer="915" to-port="1" />
		<edge from-layer="915" from-port="2" to-layer="916" to-port="1" />
		<edge from-layer="916" from-port="2" to-layer="918" to-port="0" />
		<edge from-layer="917" from-port="0" to-layer="918" to-port="1" />
		<edge from-layer="918" from-port="2" to-layer="1114" to-port="0" />
		<edge from-layer="919" from-port="0" to-layer="920" to-port="1" />
		<edge from-layer="920" from-port="2" to-layer="922" to-port="0" />
		<edge from-layer="921" from-port="0" to-layer="922" to-port="1" />
		<edge from-layer="922" from-port="2" to-layer="923" to-port="0" />
		<edge from-layer="923" from-port="1" to-layer="924" to-port="0" />
		<edge from-layer="924" from-port="2" to-layer="926" to-port="0" />
		<edge from-layer="925" from-port="0" to-layer="926" to-port="1" />
		<edge from-layer="926" from-port="2" to-layer="928" to-port="0" />
		<edge from-layer="927" from-port="0" to-layer="928" to-port="1" />
		<edge from-layer="928" from-port="2" to-layer="929" to-port="0" />
		<edge from-layer="929" from-port="1" to-layer="968" to-port="0" />
		<edge from-layer="929" from-port="1" to-layer="958" to-port="0" />
		<edge from-layer="929" from-port="1" to-layer="931" to-port="0" />
		<edge from-layer="930" from-port="0" to-layer="931" to-port="1" />
		<edge from-layer="931" from-port="2" to-layer="933" to-port="0" />
		<edge from-layer="932" from-port="0" to-layer="933" to-port="1" />
		<edge from-layer="933" from-port="2" to-layer="934" to-port="0" />
		<edge from-layer="934" from-port="1" to-layer="936" to-port="0" />
		<edge from-layer="934" from-port="1" to-layer="945" to-port="0" />
		<edge from-layer="935" from-port="0" to-layer="936" to-port="1" />
		<edge from-layer="936" from-port="2" to-layer="938" to-port="0" />
		<edge from-layer="937" from-port="0" to-layer="938" to-port="1" />
		<edge from-layer="938" from-port="2" to-layer="939" to-port="0" />
		<edge from-layer="939" from-port="1" to-layer="941" to-port="0" />
		<edge from-layer="940" from-port="0" to-layer="941" to-port="1" />
		<edge from-layer="941" from-port="2" to-layer="943" to-port="0" />
		<edge from-layer="942" from-port="0" to-layer="943" to-port="1" />
		<edge from-layer="943" from-port="2" to-layer="944" to-port="0" />
		<edge from-layer="944" from-port="1" to-layer="945" to-port="1" />
		<edge from-layer="945" from-port="2" to-layer="947" to-port="0" />
		<edge from-layer="945" from-port="2" to-layer="956" to-port="0" />
		<edge from-layer="946" from-port="0" to-layer="947" to-port="1" />
		<edge from-layer="947" from-port="2" to-layer="949" to-port="0" />
		<edge from-layer="948" from-port="0" to-layer="949" to-port="1" />
		<edge from-layer="949" from-port="2" to-layer="950" to-port="0" />
		<edge from-layer="950" from-port="1" to-layer="952" to-port="0" />
		<edge from-layer="951" from-port="0" to-layer="952" to-port="1" />
		<edge from-layer="952" from-port="2" to-layer="954" to-port="0" />
		<edge from-layer="953" from-port="0" to-layer="954" to-port="1" />
		<edge from-layer="954" from-port="2" to-layer="955" to-port="0" />
		<edge from-layer="955" from-port="1" to-layer="956" to-port="1" />
		<edge from-layer="956" from-port="2" to-layer="962" to-port="0" />
		<edge from-layer="957" from-port="0" to-layer="958" to-port="1" />
		<edge from-layer="958" from-port="2" to-layer="960" to-port="0" />
		<edge from-layer="959" from-port="0" to-layer="960" to-port="1" />
		<edge from-layer="960" from-port="2" to-layer="961" to-port="0" />
		<edge from-layer="961" from-port="1" to-layer="962" to-port="1" />
		<edge from-layer="962" from-port="2" to-layer="964" to-port="0" />
		<edge from-layer="963" from-port="0" to-layer="964" to-port="1" />
		<edge from-layer="964" from-port="2" to-layer="966" to-port="0" />
		<edge from-layer="965" from-port="0" to-layer="966" to-port="1" />
		<edge from-layer="966" from-port="2" to-layer="967" to-port="0" />
		<edge from-layer="967" from-port="1" to-layer="968" to-port="1" />
		<edge from-layer="968" from-port="2" to-layer="970" to-port="0" />
		<edge from-layer="969" from-port="0" to-layer="970" to-port="1" />
		<edge from-layer="970" from-port="2" to-layer="972" to-port="0" />
		<edge from-layer="971" from-port="0" to-layer="972" to-port="1" />
		<edge from-layer="972" from-port="2" to-layer="973" to-port="0" />
		<edge from-layer="973" from-port="1" to-layer="975" to-port="0" />
		<edge from-layer="973" from-port="1" to-layer="1016" to-port="0" />
		<edge from-layer="973" from-port="1" to-layer="989" to-port="0" />
		<edge from-layer="974" from-port="0" to-layer="975" to-port="1" />
		<edge from-layer="975" from-port="2" to-layer="977" to-port="0" />
		<edge from-layer="976" from-port="0" to-layer="977" to-port="1" />
		<edge from-layer="977" from-port="2" to-layer="978" to-port="0" />
		<edge from-layer="978" from-port="1" to-layer="980" to-port="0" />
		<edge from-layer="979" from-port="0" to-layer="980" to-port="1" />
		<edge from-layer="980" from-port="2" to-layer="982" to-port="0" />
		<edge from-layer="981" from-port="0" to-layer="982" to-port="1" />
		<edge from-layer="982" from-port="2" to-layer="983" to-port="0" />
		<edge from-layer="983" from-port="1" to-layer="985" to-port="0" />
		<edge from-layer="984" from-port="0" to-layer="985" to-port="1" />
		<edge from-layer="985" from-port="2" to-layer="987" to-port="0" />
		<edge from-layer="986" from-port="0" to-layer="987" to-port="1" />
		<edge from-layer="987" from-port="2" to-layer="1012" to-port="0" />
		<edge from-layer="988" from-port="0" to-layer="989" to-port="1" />
		<edge from-layer="989" from-port="2" to-layer="991" to-port="0" />
		<edge from-layer="990" from-port="0" to-layer="991" to-port="1" />
		<edge from-layer="991" from-port="2" to-layer="992" to-port="0" />
		<edge from-layer="992" from-port="1" to-layer="994" to-port="0" />
		<edge from-layer="993" from-port="0" to-layer="994" to-port="1" />
		<edge from-layer="994" from-port="2" to-layer="996" to-port="0" />
		<edge from-layer="995" from-port="0" to-layer="996" to-port="1" />
		<edge from-layer="996" from-port="2" to-layer="997" to-port="0" />
		<edge from-layer="997" from-port="1" to-layer="999" to-port="0" />
		<edge from-layer="998" from-port="0" to-layer="999" to-port="1" />
		<edge from-layer="999" from-port="2" to-layer="1001" to-port="0" />
		<edge from-layer="1000" from-port="0" to-layer="1001" to-port="1" />
		<edge from-layer="1001" from-port="2" to-layer="1002" to-port="0" />
		<edge from-layer="1002" from-port="1" to-layer="1004" to-port="0" />
		<edge from-layer="1003" from-port="0" to-layer="1004" to-port="1" />
		<edge from-layer="1004" from-port="2" to-layer="1006" to-port="0" />
		<edge from-layer="1005" from-port="0" to-layer="1006" to-port="1" />
		<edge from-layer="1006" from-port="2" to-layer="1007" to-port="0" />
		<edge from-layer="1007" from-port="1" to-layer="1009" to-port="0" />
		<edge from-layer="1008" from-port="0" to-layer="1009" to-port="1" />
		<edge from-layer="1009" from-port="2" to-layer="1011" to-port="0" />
		<edge from-layer="1010" from-port="0" to-layer="1011" to-port="1" />
		<edge from-layer="1011" from-port="2" to-layer="1012" to-port="1" />
		<edge from-layer="1012" from-port="2" to-layer="1014" to-port="0" />
		<edge from-layer="1013" from-port="0" to-layer="1014" to-port="1" />
		<edge from-layer="1014" from-port="2" to-layer="1114" to-port="1" />
		<edge from-layer="1015" from-port="0" to-layer="1016" to-port="1" />
		<edge from-layer="1016" from-port="2" to-layer="1018" to-port="0" />
		<edge from-layer="1017" from-port="0" to-layer="1018" to-port="1" />
		<edge from-layer="1018" from-port="2" to-layer="1019" to-port="0" />
		<edge from-layer="1019" from-port="1" to-layer="1020" to-port="0" />
		<edge from-layer="1020" from-port="2" to-layer="1022" to-port="0" />
		<edge from-layer="1021" from-port="0" to-layer="1022" to-port="1" />
		<edge from-layer="1022" from-port="2" to-layer="1024" to-port="0" />
		<edge from-layer="1023" from-port="0" to-layer="1024" to-port="1" />
		<edge from-layer="1024" from-port="2" to-layer="1025" to-port="0" />
		<edge from-layer="1025" from-port="1" to-layer="1028" to-port="0" />
		<edge from-layer="1026" from-port="0" to-layer="1028" to-port="1" />
		<edge from-layer="1027" from-port="0" to-layer="1028" to-port="2" />
		<edge from-layer="1028" from-port="3" to-layer="1067" to-port="0" />
		<edge from-layer="1028" from-port="4" to-layer="1067" to-port="1" />
		<edge from-layer="1028" from-port="4" to-layer="1057" to-port="0" />
		<edge from-layer="1028" from-port="4" to-layer="1030" to-port="0" />
		<edge from-layer="1029" from-port="0" to-layer="1030" to-port="1" />
		<edge from-layer="1030" from-port="2" to-layer="1032" to-port="0" />
		<edge from-layer="1031" from-port="0" to-layer="1032" to-port="1" />
		<edge from-layer="1032" from-port="2" to-layer="1033" to-port="0" />
		<edge from-layer="1033" from-port="1" to-layer="1035" to-port="0" />
		<edge from-layer="1033" from-port="1" to-layer="1044" to-port="0" />
		<edge from-layer="1034" from-port="0" to-layer="1035" to-port="1" />
		<edge from-layer="1035" from-port="2" to-layer="1037" to-port="0" />
		<edge from-layer="1036" from-port="0" to-layer="1037" to-port="1" />
		<edge from-layer="1037" from-port="2" to-layer="1038" to-port="0" />
		<edge from-layer="1038" from-port="1" to-layer="1040" to-port="0" />
		<edge from-layer="1039" from-port="0" to-layer="1040" to-port="1" />
		<edge from-layer="1040" from-port="2" to-layer="1042" to-port="0" />
		<edge from-layer="1041" from-port="0" to-layer="1042" to-port="1" />
		<edge from-layer="1042" from-port="2" to-layer="1043" to-port="0" />
		<edge from-layer="1043" from-port="1" to-layer="1044" to-port="1" />
		<edge from-layer="1044" from-port="2" to-layer="1046" to-port="0" />
		<edge from-layer="1044" from-port="2" to-layer="1055" to-port="0" />
		<edge from-layer="1045" from-port="0" to-layer="1046" to-port="1" />
		<edge from-layer="1046" from-port="2" to-layer="1048" to-port="0" />
		<edge from-layer="1047" from-port="0" to-layer="1048" to-port="1" />
		<edge from-layer="1048" from-port="2" to-layer="1049" to-port="0" />
		<edge from-layer="1049" from-port="1" to-layer="1051" to-port="0" />
		<edge from-layer="1050" from-port="0" to-layer="1051" to-port="1" />
		<edge from-layer="1051" from-port="2" to-layer="1053" to-port="0" />
		<edge from-layer="1052" from-port="0" to-layer="1053" to-port="1" />
		<edge from-layer="1053" from-port="2" to-layer="1054" to-port="0" />
		<edge from-layer="1054" from-port="1" to-layer="1055" to-port="1" />
		<edge from-layer="1055" from-port="2" to-layer="1061" to-port="0" />
		<edge from-layer="1056" from-port="0" to-layer="1057" to-port="1" />
		<edge from-layer="1057" from-port="2" to-layer="1059" to-port="0" />
		<edge from-layer="1058" from-port="0" to-layer="1059" to-port="1" />
		<edge from-layer="1059" from-port="2" to-layer="1060" to-port="0" />
		<edge from-layer="1060" from-port="1" to-layer="1061" to-port="1" />
		<edge from-layer="1061" from-port="2" to-layer="1063" to-port="0" />
		<edge from-layer="1062" from-port="0" to-layer="1063" to-port="1" />
		<edge from-layer="1063" from-port="2" to-layer="1065" to-port="0" />
		<edge from-layer="1064" from-port="0" to-layer="1065" to-port="1" />
		<edge from-layer="1065" from-port="2" to-layer="1066" to-port="0" />
		<edge from-layer="1066" from-port="1" to-layer="1067" to-port="2" />
		<edge from-layer="1067" from-port="3" to-layer="1069" to-port="0" />
		<edge from-layer="1068" from-port="0" to-layer="1069" to-port="1" />
		<edge from-layer="1069" from-port="2" to-layer="1071" to-port="0" />
		<edge from-layer="1070" from-port="0" to-layer="1071" to-port="1" />
		<edge from-layer="1071" from-port="2" to-layer="1072" to-port="0" />
		<edge from-layer="1072" from-port="1" to-layer="1088" to-port="0" />
		<edge from-layer="1072" from-port="1" to-layer="1074" to-port="0" />
		<edge from-layer="1073" from-port="0" to-layer="1074" to-port="1" />
		<edge from-layer="1074" from-port="2" to-layer="1076" to-port="0" />
		<edge from-layer="1075" from-port="0" to-layer="1076" to-port="1" />
		<edge from-layer="1076" from-port="2" to-layer="1077" to-port="0" />
		<edge from-layer="1077" from-port="1" to-layer="1079" to-port="0" />
		<edge from-layer="1078" from-port="0" to-layer="1079" to-port="1" />
		<edge from-layer="1079" from-port="2" to-layer="1081" to-port="0" />
		<edge from-layer="1080" from-port="0" to-layer="1081" to-port="1" />
		<edge from-layer="1081" from-port="2" to-layer="1082" to-port="0" />
		<edge from-layer="1082" from-port="1" to-layer="1084" to-port="0" />
		<edge from-layer="1083" from-port="0" to-layer="1084" to-port="1" />
		<edge from-layer="1084" from-port="2" to-layer="1086" to-port="0" />
		<edge from-layer="1085" from-port="0" to-layer="1086" to-port="1" />
		<edge from-layer="1086" from-port="2" to-layer="1111" to-port="0" />
		<edge from-layer="1087" from-port="0" to-layer="1088" to-port="1" />
		<edge from-layer="1088" from-port="2" to-layer="1090" to-port="0" />
		<edge from-layer="1089" from-port="0" to-layer="1090" to-port="1" />
		<edge from-layer="1090" from-port="2" to-layer="1091" to-port="0" />
		<edge from-layer="1091" from-port="1" to-layer="1093" to-port="0" />
		<edge from-layer="1092" from-port="0" to-layer="1093" to-port="1" />
		<edge from-layer="1093" from-port="2" to-layer="1095" to-port="0" />
		<edge from-layer="1094" from-port="0" to-layer="1095" to-port="1" />
		<edge from-layer="1095" from-port="2" to-layer="1096" to-port="0" />
		<edge from-layer="1096" from-port="1" to-layer="1098" to-port="0" />
		<edge from-layer="1097" from-port="0" to-layer="1098" to-port="1" />
		<edge from-layer="1098" from-port="2" to-layer="1100" to-port="0" />
		<edge from-layer="1099" from-port="0" to-layer="1100" to-port="1" />
		<edge from-layer="1100" from-port="2" to-layer="1101" to-port="0" />
		<edge from-layer="1101" from-port="1" to-layer="1103" to-port="0" />
		<edge from-layer="1102" from-port="0" to-layer="1103" to-port="1" />
		<edge from-layer="1103" from-port="2" to-layer="1105" to-port="0" />
		<edge from-layer="1104" from-port="0" to-layer="1105" to-port="1" />
		<edge from-layer="1105" from-port="2" to-layer="1106" to-port="0" />
		<edge from-layer="1106" from-port="1" to-layer="1108" to-port="0" />
		<edge from-layer="1107" from-port="0" to-layer="1108" to-port="1" />
		<edge from-layer="1108" from-port="2" to-layer="1110" to-port="0" />
		<edge from-layer="1109" from-port="0" to-layer="1110" to-port="1" />
		<edge from-layer="1110" from-port="2" to-layer="1111" to-port="1" />
		<edge from-layer="1111" from-port="2" to-layer="1113" to-port="0" />
		<edge from-layer="1112" from-port="0" to-layer="1113" to-port="1" />
		<edge from-layer="1113" from-port="2" to-layer="1114" to-port="2" />
		<edge from-layer="1114" from-port="3" to-layer="1117" to-port="0" />
		<edge from-layer="1115" from-port="0" to-layer="1117" to-port="1" />
		<edge from-layer="1115" from-port="0" to-layer="1144" to-port="1" />
		<edge from-layer="1115" from-port="0" to-layer="1135" to-port="1" />
		<edge from-layer="1116" from-port="0" to-layer="1117" to-port="2" />
		<edge from-layer="1117" from-port="3" to-layer="1119" to-port="0" />
		<edge from-layer="1117" from-port="3" to-layer="1128" to-port="0" />
		<edge from-layer="1117" from-port="4" to-layer="1154" to-port="0" />
		<edge from-layer="1118" from-port="0" to-layer="1119" to-port="1" />
		<edge from-layer="1119" from-port="2" to-layer="1121" to-port="0" />
		<edge from-layer="1120" from-port="0" to-layer="1121" to-port="1" />
		<edge from-layer="1121" from-port="2" to-layer="1122" to-port="0" />
		<edge from-layer="1122" from-port="1" to-layer="1124" to-port="0" />
		<edge from-layer="1123" from-port="0" to-layer="1124" to-port="1" />
		<edge from-layer="1124" from-port="2" to-layer="1126" to-port="0" />
		<edge from-layer="1125" from-port="0" to-layer="1126" to-port="1" />
		<edge from-layer="1126" from-port="2" to-layer="1144" to-port="0" />
		<edge from-layer="1127" from-port="0" to-layer="1132" to-port="1" />
		<edge from-layer="1128" from-port="1" to-layer="1131" to-port="0" />
		<edge from-layer="1129" from-port="0" to-layer="1131" to-port="1" />
		<edge from-layer="1130" from-port="0" to-layer="1131" to-port="2" />
		<edge from-layer="1131" from-port="3" to-layer="1132" to-port="2" />
		<edge from-layer="1132" from-port="3" to-layer="1133" to-port="0" />
		<edge from-layer="1133" from-port="1" to-layer="1135" to-port="0" />
		<edge from-layer="1134" from-port="0" to-layer="1139" to-port="1" />
		<edge from-layer="1134" from-port="0" to-layer="1135" to-port="2" />
		<edge from-layer="1135" from-port="3" to-layer="1138" to-port="0" />
		<edge from-layer="1135" from-port="3" to-layer="1137" to-port="0" />
		<edge from-layer="1136" from-port="0" to-layer="1138" to-port="1" />
		<edge from-layer="1136" from-port="0" to-layer="1137" to-port="1" />
		<edge from-layer="1137" from-port="2" to-layer="1141" to-port="0" />
		<edge from-layer="1138" from-port="2" to-layer="1139" to-port="0" />
		<edge from-layer="1139" from-port="2" to-layer="1140" to-port="0" />
		<edge from-layer="1140" from-port="1" to-layer="1141" to-port="1" />
		<edge from-layer="1141" from-port="2" to-layer="1143" to-port="0" />
		<edge from-layer="1142" from-port="0" to-layer="1143" to-port="1" />
		<edge from-layer="1143" from-port="2" to-layer="1144" to-port="2" />
		<edge from-layer="1144" from-port="3" to-layer="1145" to-port="1" />
		<edge from-layer="1144" from-port="4" to-layer="1146" to-port="1" />
		<edge from-layer="1145" from-port="2" to-layer="1147" to-port="0" />
		<edge from-layer="1145" from-port="2" to-layer="1150" to-port="1" />
		<edge from-layer="1146" from-port="2" to-layer="1150" to-port="0" />
		<edge from-layer="1146" from-port="2" to-layer="1147" to-port="1" />
		<edge from-layer="1147" from-port="2" to-layer="1149" to-port="0" />
		<edge from-layer="1148" from-port="0" to-layer="1149" to-port="1" />
		<edge from-layer="1149" from-port="2" to-layer="1151" to-port="0" />
		<edge from-layer="1150" from-port="2" to-layer="1151" to-port="1" />
		<edge from-layer="1151" from-port="2" to-layer="1153" to-port="0" />
		<edge from-layer="1152" from-port="0" to-layer="1153" to-port="1" />
		<edge from-layer="1153" from-port="2" to-layer="1155" to-port="0" />
		<edge from-layer="1154" from-port="1" to-layer="1155" to-port="1" />
		<edge from-layer="1155" from-port="2" to-layer="1156" to-port="0" />
	</edges>
	<rt_info>
		<Runtime_version value="2025.1.0-18503-6fec06580ab-releases/2025/1" />
		<conversion_parameters>
			<framework value="pytorch" />
			<is_python_object value="True" />
		</conversion_parameters>
		<model_info>
			<iou_threshold value="0.7" />
			<labels value="armor" />
			<model_type value="YOLO" />
			<pad_value value="114" />
			<resize_type value="fit_to_window_letterbox" />
			<reverse_input_channels value="YES" />
			<scale_values value="255" />
		</model_info>
	</rt_info>
</net>
